<?xml version="1.0"?>
<net name="main_graph" version="11">
	<layers>
		<layer id="0" name="images" type="Parameter" version="opset1">
			<data shape="1,3,640,640" element_type="f32" />
			<rt_info>
				<attribute name="old_api_map_element_type" version="0" value="f16" />
			</rt_info>
			<output>
				<port id="0" precision="FP32" names="images">
					<dim>1</dim>
					<dim>3</dim>
					<dim>640</dim>
					<dim>640</dim>
				</port>
			</output>
		</layer>
		<layer id="1" name="model.1.conv.weight_compressed" type="Const" version="opset1">
			<data element_type="f16" shape="64, 3, 3, 3" offset="0" size="3456" />
			<output>
				<port id="0" precision="FP16">
					<dim>64</dim>
					<dim>3</dim>
					<dim>3</dim>
					<dim>3</dim>
				</port>
			</output>
		</layer>
		<layer id="2" name="model.1.conv.weight" type="Convert" version="opset1">
			<data destination_type="f32" />
			<rt_info>
				<attribute name="decompression" version="0" />
			</rt_info>
			<input>
				<port id="0" precision="FP16">
					<dim>64</dim>
					<dim>3</dim>
					<dim>3</dim>
					<dim>3</dim>
				</port>
			</input>
			<output>
				<port id="1" precision="FP32" names="model.1.conv.weight">
					<dim>64</dim>
					<dim>3</dim>
					<dim>3</dim>
					<dim>3</dim>
				</port>
			</output>
		</layer>
		<layer id="3" name="/model.1/conv/Conv/WithoutBiases" type="Convolution" version="opset1">
			<data strides="2, 2" dilations="1, 1" pads_begin="1, 1" pads_end="1, 1" auto_pad="explicit" />
			<input>
				<port id="0" precision="FP32">
					<dim>1</dim>
					<dim>3</dim>
					<dim>640</dim>
					<dim>640</dim>
				</port>
				<port id="1" precision="FP32">
					<dim>64</dim>
					<dim>3</dim>
					<dim>3</dim>
					<dim>3</dim>
				</port>
			</input>
			<output>
				<port id="2" precision="FP32">
					<dim>1</dim>
					<dim>64</dim>
					<dim>320</dim>
					<dim>320</dim>
				</port>
			</output>
		</layer>
		<layer id="4" name="Reshape_521_compressed" type="Const" version="opset1">
			<data element_type="f16" shape="1, 64, 1, 1" offset="3456" size="128" />
			<output>
				<port id="0" precision="FP16">
					<dim>1</dim>
					<dim>64</dim>
					<dim>1</dim>
					<dim>1</dim>
				</port>
			</output>
		</layer>
		<layer id="5" name="Reshape_521" type="Convert" version="opset1">
			<data destination_type="f32" />
			<rt_info>
				<attribute name="decompression" version="0" />
			</rt_info>
			<input>
				<port id="0" precision="FP16">
					<dim>1</dim>
					<dim>64</dim>
					<dim>1</dim>
					<dim>1</dim>
				</port>
			</input>
			<output>
				<port id="1" precision="FP32">
					<dim>1</dim>
					<dim>64</dim>
					<dim>1</dim>
					<dim>1</dim>
				</port>
			</output>
		</layer>
		<layer id="6" name="/model.1/conv/Conv" type="Add" version="opset1">
			<data auto_broadcast="numpy" />
			<input>
				<port id="0" precision="FP32">
					<dim>1</dim>
					<dim>64</dim>
					<dim>320</dim>
					<dim>320</dim>
				</port>
				<port id="1" precision="FP32">
					<dim>1</dim>
					<dim>64</dim>
					<dim>1</dim>
					<dim>1</dim>
				</port>
			</input>
			<output>
				<port id="2" precision="FP32" names="/model.1/conv/Conv_output_0">
					<dim>1</dim>
					<dim>64</dim>
					<dim>320</dim>
					<dim>320</dim>
				</port>
			</output>
		</layer>
		<layer id="7" name="/model.1/act/Mul" type="Swish" version="opset4">
			<input>
				<port id="0" precision="FP32">
					<dim>1</dim>
					<dim>64</dim>
					<dim>320</dim>
					<dim>320</dim>
				</port>
			</input>
			<output>
				<port id="1" precision="FP32" names="/model.1/act/Mul_output_0">
					<dim>1</dim>
					<dim>64</dim>
					<dim>320</dim>
					<dim>320</dim>
				</port>
			</output>
		</layer>
		<layer id="8" name="model.2.conv.weight_compressed" type="Const" version="opset1">
			<data element_type="f16" shape="128, 64, 3, 3" offset="3584" size="147456" />
			<output>
				<port id="0" precision="FP16">
					<dim>128</dim>
					<dim>64</dim>
					<dim>3</dim>
					<dim>3</dim>
				</port>
			</output>
		</layer>
		<layer id="9" name="model.2.conv.weight" type="Convert" version="opset1">
			<data destination_type="f32" />
			<rt_info>
				<attribute name="decompression" version="0" />
			</rt_info>
			<input>
				<port id="0" precision="FP16">
					<dim>128</dim>
					<dim>64</dim>
					<dim>3</dim>
					<dim>3</dim>
				</port>
			</input>
			<output>
				<port id="1" precision="FP32" names="model.2.conv.weight">
					<dim>128</dim>
					<dim>64</dim>
					<dim>3</dim>
					<dim>3</dim>
				</port>
			</output>
		</layer>
		<layer id="10" name="/model.2/conv/Conv/WithoutBiases" type="Convolution" version="opset1">
			<data strides="2, 2" dilations="1, 1" pads_begin="1, 1" pads_end="1, 1" auto_pad="explicit" />
			<input>
				<port id="0" precision="FP32">
					<dim>1</dim>
					<dim>64</dim>
					<dim>320</dim>
					<dim>320</dim>
				</port>
				<port id="1" precision="FP32">
					<dim>128</dim>
					<dim>64</dim>
					<dim>3</dim>
					<dim>3</dim>
				</port>
			</input>
			<output>
				<port id="2" precision="FP32">
					<dim>1</dim>
					<dim>128</dim>
					<dim>160</dim>
					<dim>160</dim>
				</port>
			</output>
		</layer>
		<layer id="11" name="Reshape_539_compressed" type="Const" version="opset1">
			<data element_type="f16" shape="1, 128, 1, 1" offset="151040" size="256" />
			<output>
				<port id="0" precision="FP16">
					<dim>1</dim>
					<dim>128</dim>
					<dim>1</dim>
					<dim>1</dim>
				</port>
			</output>
		</layer>
		<layer id="12" name="Reshape_539" type="Convert" version="opset1">
			<data destination_type="f32" />
			<rt_info>
				<attribute name="decompression" version="0" />
			</rt_info>
			<input>
				<port id="0" precision="FP16">
					<dim>1</dim>
					<dim>128</dim>
					<dim>1</dim>
					<dim>1</dim>
				</port>
			</input>
			<output>
				<port id="1" precision="FP32">
					<dim>1</dim>
					<dim>128</dim>
					<dim>1</dim>
					<dim>1</dim>
				</port>
			</output>
		</layer>
		<layer id="13" name="/model.2/conv/Conv" type="Add" version="opset1">
			<data auto_broadcast="numpy" />
			<input>
				<port id="0" precision="FP32">
					<dim>1</dim>
					<dim>128</dim>
					<dim>160</dim>
					<dim>160</dim>
				</port>
				<port id="1" precision="FP32">
					<dim>1</dim>
					<dim>128</dim>
					<dim>1</dim>
					<dim>1</dim>
				</port>
			</input>
			<output>
				<port id="2" precision="FP32" names="/model.2/conv/Conv_output_0">
					<dim>1</dim>
					<dim>128</dim>
					<dim>160</dim>
					<dim>160</dim>
				</port>
			</output>
		</layer>
		<layer id="14" name="/model.2/act/Mul" type="Swish" version="opset4">
			<input>
				<port id="0" precision="FP32">
					<dim>1</dim>
					<dim>128</dim>
					<dim>160</dim>
					<dim>160</dim>
				</port>
			</input>
			<output>
				<port id="1" precision="FP32" names="/model.2/act/Mul_output_0">
					<dim>1</dim>
					<dim>128</dim>
					<dim>160</dim>
					<dim>160</dim>
				</port>
			</output>
		</layer>
		<layer id="15" name="model.3.cv1.conv.weight_compressed" type="Const" version="opset1">
			<data element_type="f16" shape="128, 128, 1, 1" offset="151296" size="32768" />
			<output>
				<port id="0" precision="FP16">
					<dim>128</dim>
					<dim>128</dim>
					<dim>1</dim>
					<dim>1</dim>
				</port>
			</output>
		</layer>
		<layer id="16" name="model.3.cv1.conv.weight" type="Convert" version="opset1">
			<data destination_type="f32" />
			<rt_info>
				<attribute name="decompression" version="0" />
			</rt_info>
			<input>
				<port id="0" precision="FP16">
					<dim>128</dim>
					<dim>128</dim>
					<dim>1</dim>
					<dim>1</dim>
				</port>
			</input>
			<output>
				<port id="1" precision="FP32" names="model.3.cv1.conv.weight">
					<dim>128</dim>
					<dim>128</dim>
					<dim>1</dim>
					<dim>1</dim>
				</port>
			</output>
		</layer>
		<layer id="17" name="/model.3/cv1/conv/Conv/WithoutBiases" type="Convolution" version="opset1">
			<data strides="1, 1" dilations="1, 1" pads_begin="0, 0" pads_end="0, 0" auto_pad="explicit" />
			<input>
				<port id="0" precision="FP32">
					<dim>1</dim>
					<dim>128</dim>
					<dim>160</dim>
					<dim>160</dim>
				</port>
				<port id="1" precision="FP32">
					<dim>128</dim>
					<dim>128</dim>
					<dim>1</dim>
					<dim>1</dim>
				</port>
			</input>
			<output>
				<port id="2" precision="FP32">
					<dim>1</dim>
					<dim>128</dim>
					<dim>160</dim>
					<dim>160</dim>
				</port>
			</output>
		</layer>
		<layer id="18" name="Reshape_557_compressed" type="Const" version="opset1">
			<data element_type="f16" shape="1, 128, 1, 1" offset="184064" size="256" />
			<output>
				<port id="0" precision="FP16">
					<dim>1</dim>
					<dim>128</dim>
					<dim>1</dim>
					<dim>1</dim>
				</port>
			</output>
		</layer>
		<layer id="19" name="Reshape_557" type="Convert" version="opset1">
			<data destination_type="f32" />
			<rt_info>
				<attribute name="decompression" version="0" />
			</rt_info>
			<input>
				<port id="0" precision="FP16">
					<dim>1</dim>
					<dim>128</dim>
					<dim>1</dim>
					<dim>1</dim>
				</port>
			</input>
			<output>
				<port id="1" precision="FP32">
					<dim>1</dim>
					<dim>128</dim>
					<dim>1</dim>
					<dim>1</dim>
				</port>
			</output>
		</layer>
		<layer id="20" name="/model.3/cv1/conv/Conv" type="Add" version="opset1">
			<data auto_broadcast="numpy" />
			<input>
				<port id="0" precision="FP32">
					<dim>1</dim>
					<dim>128</dim>
					<dim>160</dim>
					<dim>160</dim>
				</port>
				<port id="1" precision="FP32">
					<dim>1</dim>
					<dim>128</dim>
					<dim>1</dim>
					<dim>1</dim>
				</port>
			</input>
			<output>
				<port id="2" precision="FP32" names="/model.3/cv1/conv/Conv_output_0">
					<dim>1</dim>
					<dim>128</dim>
					<dim>160</dim>
					<dim>160</dim>
				</port>
			</output>
		</layer>
		<layer id="21" name="/model.3/cv1/act/Mul" type="Swish" version="opset4">
			<input>
				<port id="0" precision="FP32">
					<dim>1</dim>
					<dim>128</dim>
					<dim>160</dim>
					<dim>160</dim>
				</port>
			</input>
			<output>
				<port id="1" precision="FP32" names="/model.3/cv1/act/Mul_output_0">
					<dim>1</dim>
					<dim>128</dim>
					<dim>160</dim>
					<dim>160</dim>
				</port>
			</output>
		</layer>
		<layer id="22" name="Constant_18271" type="Const" version="opset1">
			<data element_type="i64" shape="2" offset="184320" size="16" />
			<rt_info>
				<attribute name="precise" version="0" />
			</rt_info>
			<output>
				<port id="0" precision="I64">
					<dim>2</dim>
				</port>
			</output>
		</layer>
		<layer id="23" name="Constant_18272" type="Const" version="opset1">
			<data element_type="i64" shape="2" offset="184320" size="16" />
			<rt_info>
				<attribute name="precise" version="0" />
			</rt_info>
			<output>
				<port id="0" precision="I64">
					<dim>2</dim>
				</port>
			</output>
		</layer>
		<layer id="24" name="Constant_18268" type="Const" version="opset1">
			<data element_type="i64" shape="1" offset="184336" size="8" />
			<rt_info>
				<attribute name="precise" version="0" />
			</rt_info>
			<output>
				<port id="0" precision="I64">
					<dim>1</dim>
				</port>
			</output>
		</layer>
		<layer id="25" name="/model.3/Shape" type="ShapeOf" version="opset3">
			<data output_type="i64" />
			<input>
				<port id="0" precision="FP32">
					<dim>1</dim>
					<dim>128</dim>
					<dim>160</dim>
					<dim>160</dim>
				</port>
			</input>
			<output>
				<port id="1" precision="I64" names="/model.3/Shape_output_0">
					<dim>4</dim>
				</port>
			</output>
		</layer>
		<layer id="26" name="/model.3/Constant" type="Const" version="opset1">
			<data element_type="i64" shape="1" offset="184336" size="8" />
			<rt_info>
				<attribute name="precise" version="0" />
			</rt_info>
			<output>
				<port id="0" precision="I64" names="/model.3/Constant_output_0">
					<dim>1</dim>
				</port>
			</output>
		</layer>
		<layer id="27" name="Constant_565" type="Const" version="opset1">
			<data element_type="i64" shape="" offset="184344" size="8" />
			<rt_info>
				<attribute name="precise" version="0" />
			</rt_info>
			<output>
				<port id="0" precision="I64" />
			</output>
		</layer>
		<layer id="28" name="/model.3/Gather" type="Gather" version="opset8">
			<data batch_dims="0" />
			<input>
				<port id="0" precision="I64">
					<dim>4</dim>
				</port>
				<port id="1" precision="I64">
					<dim>1</dim>
				</port>
				<port id="2" precision="I64" />
			</input>
			<output>
				<port id="3" precision="I64" names="/model.3/Gather_output_0">
					<dim>1</dim>
				</port>
			</output>
		</layer>
		<layer id="29" name="/model.3/Constant_2" type="Const" version="opset1">
			<data element_type="i64" shape="1" offset="184336" size="8" />
			<rt_info>
				<attribute name="precise" version="0" />
			</rt_info>
			<output>
				<port id="0" precision="I64" names="/model.3/Constant_2_output_0">
					<dim>1</dim>
				</port>
			</output>
		</layer>
		<layer id="30" name="/model.3/Add" type="Add" version="opset1">
			<data auto_broadcast="numpy" />
			<input>
				<port id="0" precision="I64">
					<dim>1</dim>
				</port>
				<port id="1" precision="I64">
					<dim>1</dim>
				</port>
			</input>
			<output>
				<port id="2" precision="I64" names="/model.3/Add_output_0">
					<dim>1</dim>
				</port>
			</output>
		</layer>
		<layer id="31" name="/model.3/Constant_3" type="Const" version="opset1">
			<data element_type="i64" shape="1" offset="184352" size="8" />
			<rt_info>
				<attribute name="precise" version="0" />
			</rt_info>
			<output>
				<port id="0" precision="I64" names="/model.3/Constant_3_output_0">
					<dim>1</dim>
				</port>
			</output>
		</layer>
		<layer id="32" name="/model.3/Div" type="Divide" version="opset1">
			<data auto_broadcast="numpy" m_pythondiv="true" />
			<input>
				<port id="0" precision="I64">
					<dim>1</dim>
				</port>
				<port id="1" precision="I64">
					<dim>1</dim>
				</port>
			</input>
			<output>
				<port id="2" precision="I64" names="/model.3/Div_output_0,/model.3/Mul_output_0">
					<dim>1</dim>
				</port>
			</output>
		</layer>
		<layer id="33" name="Constant_18267" type="Const" version="opset1">
			<data element_type="i32" shape="1" offset="184360" size="4" />
			<rt_info>
				<attribute name="precise" version="0" />
			</rt_info>
			<output>
				<port id="0" precision="I32">
					<dim>1</dim>
				</port>
			</output>
		</layer>
		<layer id="34" name="ScatterUpdate_18273" type="ScatterUpdate" version="opset3">
			<input>
				<port id="0" precision="I64">
					<dim>2</dim>
				</port>
				<port id="1" precision="I64">
					<dim>1</dim>
				</port>
				<port id="2" precision="I64">
					<dim>1</dim>
				</port>
				<port id="3" precision="I32">
					<dim>1</dim>
				</port>
			</input>
			<output>
				<port id="4" precision="I64">
					<dim>2</dim>
				</port>
			</output>
		</layer>
		<layer id="35" name="Constant_18276" type="Const" version="opset1">
			<data element_type="i64" shape="2" offset="184364" size="16" />
			<rt_info>
				<attribute name="precise" version="0" />
			</rt_info>
			<output>
				<port id="0" precision="I64">
					<dim>2</dim>
				</port>
			</output>
		</layer>
		<layer id="36" name="/model.3/Slice" type="StridedSlice" version="opset1">
			<data begin_mask="1, 0" end_mask="1, 0" new_axis_mask="" shrink_axis_mask="" ellipsis_mask="" />
			<input>
				<port id="0" precision="FP32">
					<dim>1</dim>
					<dim>128</dim>
					<dim>160</dim>
					<dim>160</dim>
				</port>
				<port id="1" precision="I64">
					<dim>2</dim>
				</port>
				<port id="2" precision="I64">
					<dim>2</dim>
				</port>
				<port id="3" precision="I64">
					<dim>2</dim>
				</port>
			</input>
			<output>
				<port id="4" precision="FP32" names="/model.3/Slice_output_0">
					<dim>1</dim>
					<dim>64</dim>
					<dim>160</dim>
					<dim>160</dim>
				</port>
			</output>
		</layer>
		<layer id="37" name="Constant_18321" type="Const" version="opset1">
			<data element_type="i64" shape="2" offset="184320" size="16" />
			<rt_info>
				<attribute name="precise" version="0" />
			</rt_info>
			<output>
				<port id="0" precision="I64">
					<dim>2</dim>
				</port>
			</output>
		</layer>
		<layer id="38" name="Constant_18318" type="Const" version="opset1">
			<data element_type="i64" shape="1" offset="184336" size="8" />
			<rt_info>
				<attribute name="precise" version="0" />
			</rt_info>
			<output>
				<port id="0" precision="I64">
					<dim>1</dim>
				</port>
			</output>
		</layer>
		<layer id="39" name="/model.3/Constant_5" type="Const" version="opset1">
			<data element_type="i64" shape="1" offset="184352" size="8" />
			<rt_info>
				<attribute name="precise" version="0" />
			</rt_info>
			<output>
				<port id="0" precision="I64" names="/model.3/Constant_5_output_0">
					<dim>1</dim>
				</port>
			</output>
		</layer>
		<layer id="40" name="/model.3/Mul_1" type="Multiply" version="opset1">
			<data auto_broadcast="numpy" />
			<input>
				<port id="0" precision="I64">
					<dim>1</dim>
				</port>
				<port id="1" precision="I64">
					<dim>1</dim>
				</port>
			</input>
			<output>
				<port id="2" precision="I64" names="/model.3/Mul_1_output_0">
					<dim>1</dim>
				</port>
			</output>
		</layer>
		<layer id="41" name="Constant_18317" type="Const" version="opset1">
			<data element_type="i32" shape="1" offset="184360" size="4" />
			<rt_info>
				<attribute name="precise" version="0" />
			</rt_info>
			<output>
				<port id="0" precision="I32">
					<dim>1</dim>
				</port>
			</output>
		</layer>
		<layer id="42" name="ScatterUpdate_18322" type="ScatterUpdate" version="opset3">
			<input>
				<port id="0" precision="I64">
					<dim>2</dim>
				</port>
				<port id="1" precision="I64">
					<dim>1</dim>
				</port>
				<port id="2" precision="I64">
					<dim>1</dim>
				</port>
				<port id="3" precision="I32">
					<dim>1</dim>
				</port>
			</input>
			<output>
				<port id="4" precision="I64">
					<dim>2</dim>
				</port>
			</output>
		</layer>
		<layer id="43" name="Constant_18325" type="Const" version="opset1">
			<data element_type="i64" shape="2" offset="184364" size="16" />
			<rt_info>
				<attribute name="precise" version="0" />
			</rt_info>
			<output>
				<port id="0" precision="I64">
					<dim>2</dim>
				</port>
			</output>
		</layer>
		<layer id="44" name="/model.3/Slice_1" type="StridedSlice" version="opset1">
			<data begin_mask="1, 0" end_mask="1, 0" new_axis_mask="" shrink_axis_mask="" ellipsis_mask="" />
			<input>
				<port id="0" precision="FP32">
					<dim>1</dim>
					<dim>128</dim>
					<dim>160</dim>
					<dim>160</dim>
				</port>
				<port id="1" precision="I64">
					<dim>2</dim>
				</port>
				<port id="2" precision="I64">
					<dim>2</dim>
				</port>
				<port id="3" precision="I64">
					<dim>2</dim>
				</port>
			</input>
			<output>
				<port id="4" precision="FP32" names="/model.3/Slice_1_output_0">
					<dim>1</dim>
					<dim>64</dim>
					<dim>160</dim>
					<dim>160</dim>
				</port>
			</output>
		</layer>
		<layer id="45" name="model.3.cv2.0.cv1.conv.weight_compressed" type="Const" version="opset1">
			<data element_type="f16" shape="32, 64, 1, 1" offset="184380" size="4096" />
			<output>
				<port id="0" precision="FP16">
					<dim>32</dim>
					<dim>64</dim>
					<dim>1</dim>
					<dim>1</dim>
				</port>
			</output>
		</layer>
		<layer id="46" name="model.3.cv2.0.cv1.conv.weight" type="Convert" version="opset1">
			<data destination_type="f32" />
			<rt_info>
				<attribute name="decompression" version="0" />
			</rt_info>
			<input>
				<port id="0" precision="FP16">
					<dim>32</dim>
					<dim>64</dim>
					<dim>1</dim>
					<dim>1</dim>
				</port>
			</input>
			<output>
				<port id="1" precision="FP32" names="model.3.cv2.0.cv1.conv.weight">
					<dim>32</dim>
					<dim>64</dim>
					<dim>1</dim>
					<dim>1</dim>
				</port>
			</output>
		</layer>
		<layer id="47" name="/model.3/cv2/cv2.0/cv1/conv/Conv/WithoutBiases" type="Convolution" version="opset1">
			<data strides="1, 1" dilations="1, 1" pads_begin="0, 0" pads_end="0, 0" auto_pad="explicit" />
			<input>
				<port id="0" precision="FP32">
					<dim>1</dim>
					<dim>64</dim>
					<dim>160</dim>
					<dim>160</dim>
				</port>
				<port id="1" precision="FP32">
					<dim>32</dim>
					<dim>64</dim>
					<dim>1</dim>
					<dim>1</dim>
				</port>
			</input>
			<output>
				<port id="2" precision="FP32">
					<dim>1</dim>
					<dim>32</dim>
					<dim>160</dim>
					<dim>160</dim>
				</port>
			</output>
		</layer>
		<layer id="48" name="Reshape_684_compressed" type="Const" version="opset1">
			<data element_type="f16" shape="1, 32, 1, 1" offset="188476" size="64" />
			<output>
				<port id="0" precision="FP16">
					<dim>1</dim>
					<dim>32</dim>
					<dim>1</dim>
					<dim>1</dim>
				</port>
			</output>
		</layer>
		<layer id="49" name="Reshape_684" type="Convert" version="opset1">
			<data destination_type="f32" />
			<rt_info>
				<attribute name="decompression" version="0" />
			</rt_info>
			<input>
				<port id="0" precision="FP16">
					<dim>1</dim>
					<dim>32</dim>
					<dim>1</dim>
					<dim>1</dim>
				</port>
			</input>
			<output>
				<port id="1" precision="FP32">
					<dim>1</dim>
					<dim>32</dim>
					<dim>1</dim>
					<dim>1</dim>
				</port>
			</output>
		</layer>
		<layer id="50" name="/model.3/cv2/cv2.0/cv1/conv/Conv" type="Add" version="opset1">
			<data auto_broadcast="numpy" />
			<input>
				<port id="0" precision="FP32">
					<dim>1</dim>
					<dim>32</dim>
					<dim>160</dim>
					<dim>160</dim>
				</port>
				<port id="1" precision="FP32">
					<dim>1</dim>
					<dim>32</dim>
					<dim>1</dim>
					<dim>1</dim>
				</port>
			</input>
			<output>
				<port id="2" precision="FP32" names="/model.3/cv2/cv2.0/cv1/conv/Conv_output_0">
					<dim>1</dim>
					<dim>32</dim>
					<dim>160</dim>
					<dim>160</dim>
				</port>
			</output>
		</layer>
		<layer id="51" name="/model.3/cv2/cv2.0/cv1/act/Mul" type="Swish" version="opset4">
			<input>
				<port id="0" precision="FP32">
					<dim>1</dim>
					<dim>32</dim>
					<dim>160</dim>
					<dim>160</dim>
				</port>
			</input>
			<output>
				<port id="1" precision="FP32" names="/model.3/cv2/cv2.0/cv1/act/Mul_output_0">
					<dim>1</dim>
					<dim>32</dim>
					<dim>160</dim>
					<dim>160</dim>
				</port>
			</output>
		</layer>
		<layer id="52" name="model.3.cv2.0.m.0.cv1.conv1.conv.weight_compressed" type="Const" version="opset1">
			<data element_type="f16" shape="32, 32, 3, 3" offset="188540" size="18432" />
			<output>
				<port id="0" precision="FP16">
					<dim>32</dim>
					<dim>32</dim>
					<dim>3</dim>
					<dim>3</dim>
				</port>
			</output>
		</layer>
		<layer id="53" name="model.3.cv2.0.m.0.cv1.conv1.conv.weight" type="Convert" version="opset1">
			<data destination_type="f32" />
			<rt_info>
				<attribute name="decompression" version="0" />
			</rt_info>
			<input>
				<port id="0" precision="FP16">
					<dim>32</dim>
					<dim>32</dim>
					<dim>3</dim>
					<dim>3</dim>
				</port>
			</input>
			<output>
				<port id="1" precision="FP32" names="model.3.cv2.0.m.0.cv1.conv1.conv.weight">
					<dim>32</dim>
					<dim>32</dim>
					<dim>3</dim>
					<dim>3</dim>
				</port>
			</output>
		</layer>
		<layer id="54" name="/model.3/cv2/cv2.0/m/m.0/cv1/conv1/conv/Conv/WithoutBiases" type="Convolution" version="opset1">
			<data strides="1, 1" dilations="1, 1" pads_begin="1, 1" pads_end="1, 1" auto_pad="explicit" />
			<input>
				<port id="0" precision="FP32">
					<dim>1</dim>
					<dim>32</dim>
					<dim>160</dim>
					<dim>160</dim>
				</port>
				<port id="1" precision="FP32">
					<dim>32</dim>
					<dim>32</dim>
					<dim>3</dim>
					<dim>3</dim>
				</port>
			</input>
			<output>
				<port id="2" precision="FP32">
					<dim>1</dim>
					<dim>32</dim>
					<dim>160</dim>
					<dim>160</dim>
				</port>
			</output>
		</layer>
		<layer id="55" name="Reshape_702_compressed" type="Const" version="opset1">
			<data element_type="f16" shape="1, 32, 1, 1" offset="206972" size="64" />
			<output>
				<port id="0" precision="FP16">
					<dim>1</dim>
					<dim>32</dim>
					<dim>1</dim>
					<dim>1</dim>
				</port>
			</output>
		</layer>
		<layer id="56" name="Reshape_702" type="Convert" version="opset1">
			<data destination_type="f32" />
			<rt_info>
				<attribute name="decompression" version="0" />
			</rt_info>
			<input>
				<port id="0" precision="FP16">
					<dim>1</dim>
					<dim>32</dim>
					<dim>1</dim>
					<dim>1</dim>
				</port>
			</input>
			<output>
				<port id="1" precision="FP32">
					<dim>1</dim>
					<dim>32</dim>
					<dim>1</dim>
					<dim>1</dim>
				</port>
			</output>
		</layer>
		<layer id="57" name="/model.3/cv2/cv2.0/m/m.0/cv1/conv1/conv/Conv" type="Add" version="opset1">
			<data auto_broadcast="numpy" />
			<input>
				<port id="0" precision="FP32">
					<dim>1</dim>
					<dim>32</dim>
					<dim>160</dim>
					<dim>160</dim>
				</port>
				<port id="1" precision="FP32">
					<dim>1</dim>
					<dim>32</dim>
					<dim>1</dim>
					<dim>1</dim>
				</port>
			</input>
			<output>
				<port id="2" precision="FP32" names="/model.3/cv2/cv2.0/m/m.0/cv1/conv1/conv/Conv_output_0">
					<dim>1</dim>
					<dim>32</dim>
					<dim>160</dim>
					<dim>160</dim>
				</port>
			</output>
		</layer>
		<layer id="58" name="model.3.cv2.0.m.0.cv1.conv2.conv.weight_compressed" type="Const" version="opset1">
			<data element_type="f16" shape="32, 32, 1, 1" offset="207036" size="2048" />
			<output>
				<port id="0" precision="FP16">
					<dim>32</dim>
					<dim>32</dim>
					<dim>1</dim>
					<dim>1</dim>
				</port>
			</output>
		</layer>
		<layer id="59" name="model.3.cv2.0.m.0.cv1.conv2.conv.weight" type="Convert" version="opset1">
			<data destination_type="f32" />
			<rt_info>
				<attribute name="decompression" version="0" />
			</rt_info>
			<input>
				<port id="0" precision="FP16">
					<dim>32</dim>
					<dim>32</dim>
					<dim>1</dim>
					<dim>1</dim>
				</port>
			</input>
			<output>
				<port id="1" precision="FP32" names="model.3.cv2.0.m.0.cv1.conv2.conv.weight">
					<dim>32</dim>
					<dim>32</dim>
					<dim>1</dim>
					<dim>1</dim>
				</port>
			</output>
		</layer>
		<layer id="60" name="/model.3/cv2/cv2.0/m/m.0/cv1/conv2/conv/Conv/WithoutBiases" type="Convolution" version="opset1">
			<data strides="1, 1" dilations="1, 1" pads_begin="0, 0" pads_end="0, 0" auto_pad="explicit" />
			<input>
				<port id="0" precision="FP32">
					<dim>1</dim>
					<dim>32</dim>
					<dim>160</dim>
					<dim>160</dim>
				</port>
				<port id="1" precision="FP32">
					<dim>32</dim>
					<dim>32</dim>
					<dim>1</dim>
					<dim>1</dim>
				</port>
			</input>
			<output>
				<port id="2" precision="FP32">
					<dim>1</dim>
					<dim>32</dim>
					<dim>160</dim>
					<dim>160</dim>
				</port>
			</output>
		</layer>
		<layer id="61" name="Reshape_718_compressed" type="Const" version="opset1">
			<data element_type="f16" shape="1, 32, 1, 1" offset="209084" size="64" />
			<output>
				<port id="0" precision="FP16">
					<dim>1</dim>
					<dim>32</dim>
					<dim>1</dim>
					<dim>1</dim>
				</port>
			</output>
		</layer>
		<layer id="62" name="Reshape_718" type="Convert" version="opset1">
			<data destination_type="f32" />
			<rt_info>
				<attribute name="decompression" version="0" />
			</rt_info>
			<input>
				<port id="0" precision="FP16">
					<dim>1</dim>
					<dim>32</dim>
					<dim>1</dim>
					<dim>1</dim>
				</port>
			</input>
			<output>
				<port id="1" precision="FP32">
					<dim>1</dim>
					<dim>32</dim>
					<dim>1</dim>
					<dim>1</dim>
				</port>
			</output>
		</layer>
		<layer id="63" name="/model.3/cv2/cv2.0/m/m.0/cv1/conv2/conv/Conv" type="Add" version="opset1">
			<data auto_broadcast="numpy" />
			<input>
				<port id="0" precision="FP32">
					<dim>1</dim>
					<dim>32</dim>
					<dim>160</dim>
					<dim>160</dim>
				</port>
				<port id="1" precision="FP32">
					<dim>1</dim>
					<dim>32</dim>
					<dim>1</dim>
					<dim>1</dim>
				</port>
			</input>
			<output>
				<port id="2" precision="FP32" names="/model.3/cv2/cv2.0/m/m.0/cv1/conv2/conv/Conv_output_0">
					<dim>1</dim>
					<dim>32</dim>
					<dim>160</dim>
					<dim>160</dim>
				</port>
			</output>
		</layer>
		<layer id="64" name="/model.3/cv2/cv2.0/m/m.0/cv1/Add" type="Add" version="opset1">
			<data auto_broadcast="numpy" />
			<input>
				<port id="0" precision="FP32">
					<dim>1</dim>
					<dim>32</dim>
					<dim>160</dim>
					<dim>160</dim>
				</port>
				<port id="1" precision="FP32">
					<dim>1</dim>
					<dim>32</dim>
					<dim>160</dim>
					<dim>160</dim>
				</port>
			</input>
			<output>
				<port id="2" precision="FP32" names="/model.3/cv2/cv2.0/m/m.0/cv1/Add_1_output_0,/model.3/cv2/cv2.0/m/m.0/cv1/Add_output_0">
					<dim>1</dim>
					<dim>32</dim>
					<dim>160</dim>
					<dim>160</dim>
				</port>
			</output>
		</layer>
		<layer id="65" name="/model.3/cv2/cv2.0/m/m.0/cv1/act/Mul" type="Swish" version="opset4">
			<input>
				<port id="0" precision="FP32">
					<dim>1</dim>
					<dim>32</dim>
					<dim>160</dim>
					<dim>160</dim>
				</port>
			</input>
			<output>
				<port id="1" precision="FP32" names="/model.3/cv2/cv2.0/m/m.0/cv1/act/Mul_output_0">
					<dim>1</dim>
					<dim>32</dim>
					<dim>160</dim>
					<dim>160</dim>
				</port>
			</output>
		</layer>
		<layer id="66" name="model.3.cv2.0.m.0.cv2.conv.weight_compressed" type="Const" version="opset1">
			<data element_type="f16" shape="32, 32, 3, 3" offset="209148" size="18432" />
			<output>
				<port id="0" precision="FP16">
					<dim>32</dim>
					<dim>32</dim>
					<dim>3</dim>
					<dim>3</dim>
				</port>
			</output>
		</layer>
		<layer id="67" name="model.3.cv2.0.m.0.cv2.conv.weight" type="Convert" version="opset1">
			<data destination_type="f32" />
			<rt_info>
				<attribute name="decompression" version="0" />
			</rt_info>
			<input>
				<port id="0" precision="FP16">
					<dim>32</dim>
					<dim>32</dim>
					<dim>3</dim>
					<dim>3</dim>
				</port>
			</input>
			<output>
				<port id="1" precision="FP32" names="model.3.cv2.0.m.0.cv2.conv.weight">
					<dim>32</dim>
					<dim>32</dim>
					<dim>3</dim>
					<dim>3</dim>
				</port>
			</output>
		</layer>
		<layer id="68" name="/model.3/cv2/cv2.0/m/m.0/cv2/conv/Conv/WithoutBiases" type="Convolution" version="opset1">
			<data strides="1, 1" dilations="1, 1" pads_begin="1, 1" pads_end="1, 1" auto_pad="explicit" />
			<input>
				<port id="0" precision="FP32">
					<dim>1</dim>
					<dim>32</dim>
					<dim>160</dim>
					<dim>160</dim>
				</port>
				<port id="1" precision="FP32">
					<dim>32</dim>
					<dim>32</dim>
					<dim>3</dim>
					<dim>3</dim>
				</port>
			</input>
			<output>
				<port id="2" precision="FP32">
					<dim>1</dim>
					<dim>32</dim>
					<dim>160</dim>
					<dim>160</dim>
				</port>
			</output>
		</layer>
		<layer id="69" name="Reshape_739_compressed" type="Const" version="opset1">
			<data element_type="f16" shape="1, 32, 1, 1" offset="227580" size="64" />
			<output>
				<port id="0" precision="FP16">
					<dim>1</dim>
					<dim>32</dim>
					<dim>1</dim>
					<dim>1</dim>
				</port>
			</output>
		</layer>
		<layer id="70" name="Reshape_739" type="Convert" version="opset1">
			<data destination_type="f32" />
			<rt_info>
				<attribute name="decompression" version="0" />
			</rt_info>
			<input>
				<port id="0" precision="FP16">
					<dim>1</dim>
					<dim>32</dim>
					<dim>1</dim>
					<dim>1</dim>
				</port>
			</input>
			<output>
				<port id="1" precision="FP32">
					<dim>1</dim>
					<dim>32</dim>
					<dim>1</dim>
					<dim>1</dim>
				</port>
			</output>
		</layer>
		<layer id="71" name="/model.3/cv2/cv2.0/m/m.0/cv2/conv/Conv" type="Add" version="opset1">
			<data auto_broadcast="numpy" />
			<input>
				<port id="0" precision="FP32">
					<dim>1</dim>
					<dim>32</dim>
					<dim>160</dim>
					<dim>160</dim>
				</port>
				<port id="1" precision="FP32">
					<dim>1</dim>
					<dim>32</dim>
					<dim>1</dim>
					<dim>1</dim>
				</port>
			</input>
			<output>
				<port id="2" precision="FP32" names="/model.3/cv2/cv2.0/m/m.0/cv2/conv/Conv_output_0">
					<dim>1</dim>
					<dim>32</dim>
					<dim>160</dim>
					<dim>160</dim>
				</port>
			</output>
		</layer>
		<layer id="72" name="/model.3/cv2/cv2.0/m/m.0/cv2/act/Mul" type="Swish" version="opset4">
			<input>
				<port id="0" precision="FP32">
					<dim>1</dim>
					<dim>32</dim>
					<dim>160</dim>
					<dim>160</dim>
				</port>
			</input>
			<output>
				<port id="1" precision="FP32" names="/model.3/cv2/cv2.0/m/m.0/cv2/act/Mul_output_0">
					<dim>1</dim>
					<dim>32</dim>
					<dim>160</dim>
					<dim>160</dim>
				</port>
			</output>
		</layer>
		<layer id="73" name="/model.3/cv2/cv2.0/m/m.0/Add" type="Add" version="opset1">
			<data auto_broadcast="numpy" />
			<input>
				<port id="0" precision="FP32">
					<dim>1</dim>
					<dim>32</dim>
					<dim>160</dim>
					<dim>160</dim>
				</port>
				<port id="1" precision="FP32">
					<dim>1</dim>
					<dim>32</dim>
					<dim>160</dim>
					<dim>160</dim>
				</port>
			</input>
			<output>
				<port id="2" precision="FP32" names="/model.3/cv2/cv2.0/m/m.0/Add_output_0">
					<dim>1</dim>
					<dim>32</dim>
					<dim>160</dim>
					<dim>160</dim>
				</port>
			</output>
		</layer>
		<layer id="74" name="model.3.cv2.0.cv2.conv.weight_compressed" type="Const" version="opset1">
			<data element_type="f16" shape="32, 64, 1, 1" offset="227644" size="4096" />
			<output>
				<port id="0" precision="FP16">
					<dim>32</dim>
					<dim>64</dim>
					<dim>1</dim>
					<dim>1</dim>
				</port>
			</output>
		</layer>
		<layer id="75" name="model.3.cv2.0.cv2.conv.weight" type="Convert" version="opset1">
			<data destination_type="f32" />
			<rt_info>
				<attribute name="decompression" version="0" />
			</rt_info>
			<input>
				<port id="0" precision="FP16">
					<dim>32</dim>
					<dim>64</dim>
					<dim>1</dim>
					<dim>1</dim>
				</port>
			</input>
			<output>
				<port id="1" precision="FP32" names="model.3.cv2.0.cv2.conv.weight">
					<dim>32</dim>
					<dim>64</dim>
					<dim>1</dim>
					<dim>1</dim>
				</port>
			</output>
		</layer>
		<layer id="76" name="/model.3/cv2/cv2.0/cv2/conv/Conv/WithoutBiases" type="Convolution" version="opset1">
			<data strides="1, 1" dilations="1, 1" pads_begin="0, 0" pads_end="0, 0" auto_pad="explicit" />
			<input>
				<port id="0" precision="FP32">
					<dim>1</dim>
					<dim>64</dim>
					<dim>160</dim>
					<dim>160</dim>
				</port>
				<port id="1" precision="FP32">
					<dim>32</dim>
					<dim>64</dim>
					<dim>1</dim>
					<dim>1</dim>
				</port>
			</input>
			<output>
				<port id="2" precision="FP32">
					<dim>1</dim>
					<dim>32</dim>
					<dim>160</dim>
					<dim>160</dim>
				</port>
			</output>
		</layer>
		<layer id="77" name="Reshape_758_compressed" type="Const" version="opset1">
			<data element_type="f16" shape="1, 32, 1, 1" offset="231740" size="64" />
			<output>
				<port id="0" precision="FP16">
					<dim>1</dim>
					<dim>32</dim>
					<dim>1</dim>
					<dim>1</dim>
				</port>
			</output>
		</layer>
		<layer id="78" name="Reshape_758" type="Convert" version="opset1">
			<data destination_type="f32" />
			<rt_info>
				<attribute name="decompression" version="0" />
			</rt_info>
			<input>
				<port id="0" precision="FP16">
					<dim>1</dim>
					<dim>32</dim>
					<dim>1</dim>
					<dim>1</dim>
				</port>
			</input>
			<output>
				<port id="1" precision="FP32">
					<dim>1</dim>
					<dim>32</dim>
					<dim>1</dim>
					<dim>1</dim>
				</port>
			</output>
		</layer>
		<layer id="79" name="/model.3/cv2/cv2.0/cv2/conv/Conv" type="Add" version="opset1">
			<data auto_broadcast="numpy" />
			<input>
				<port id="0" precision="FP32">
					<dim>1</dim>
					<dim>32</dim>
					<dim>160</dim>
					<dim>160</dim>
				</port>
				<port id="1" precision="FP32">
					<dim>1</dim>
					<dim>32</dim>
					<dim>1</dim>
					<dim>1</dim>
				</port>
			</input>
			<output>
				<port id="2" precision="FP32" names="/model.3/cv2/cv2.0/cv2/conv/Conv_output_0">
					<dim>1</dim>
					<dim>32</dim>
					<dim>160</dim>
					<dim>160</dim>
				</port>
			</output>
		</layer>
		<layer id="80" name="/model.3/cv2/cv2.0/cv2/act/Mul" type="Swish" version="opset4">
			<input>
				<port id="0" precision="FP32">
					<dim>1</dim>
					<dim>32</dim>
					<dim>160</dim>
					<dim>160</dim>
				</port>
			</input>
			<output>
				<port id="1" precision="FP32" names="/model.3/cv2/cv2.0/cv2/act/Mul_output_0">
					<dim>1</dim>
					<dim>32</dim>
					<dim>160</dim>
					<dim>160</dim>
				</port>
			</output>
		</layer>
		<layer id="81" name="/model.3/cv2/cv2.0/Concat" type="Concat" version="opset1">
			<data axis="1" />
			<input>
				<port id="0" precision="FP32">
					<dim>1</dim>
					<dim>32</dim>
					<dim>160</dim>
					<dim>160</dim>
				</port>
				<port id="1" precision="FP32">
					<dim>1</dim>
					<dim>32</dim>
					<dim>160</dim>
					<dim>160</dim>
				</port>
			</input>
			<output>
				<port id="2" precision="FP32" names="/model.3/cv2/cv2.0/Concat_output_0">
					<dim>1</dim>
					<dim>64</dim>
					<dim>160</dim>
					<dim>160</dim>
				</port>
			</output>
		</layer>
		<layer id="82" name="model.3.cv2.0.cv3.conv.weight_compressed" type="Const" version="opset1">
			<data element_type="f16" shape="64, 64, 1, 1" offset="231804" size="8192" />
			<output>
				<port id="0" precision="FP16">
					<dim>64</dim>
					<dim>64</dim>
					<dim>1</dim>
					<dim>1</dim>
				</port>
			</output>
		</layer>
		<layer id="83" name="model.3.cv2.0.cv3.conv.weight" type="Convert" version="opset1">
			<data destination_type="f32" />
			<rt_info>
				<attribute name="decompression" version="0" />
			</rt_info>
			<input>
				<port id="0" precision="FP16">
					<dim>64</dim>
					<dim>64</dim>
					<dim>1</dim>
					<dim>1</dim>
				</port>
			</input>
			<output>
				<port id="1" precision="FP32" names="model.3.cv2.0.cv3.conv.weight">
					<dim>64</dim>
					<dim>64</dim>
					<dim>1</dim>
					<dim>1</dim>
				</port>
			</output>
		</layer>
		<layer id="84" name="/model.3/cv2/cv2.0/cv3/conv/Conv/WithoutBiases" type="Convolution" version="opset1">
			<data strides="1, 1" dilations="1, 1" pads_begin="0, 0" pads_end="0, 0" auto_pad="explicit" />
			<input>
				<port id="0" precision="FP32">
					<dim>1</dim>
					<dim>64</dim>
					<dim>160</dim>
					<dim>160</dim>
				</port>
				<port id="1" precision="FP32">
					<dim>64</dim>
					<dim>64</dim>
					<dim>1</dim>
					<dim>1</dim>
				</port>
			</input>
			<output>
				<port id="2" precision="FP32">
					<dim>1</dim>
					<dim>64</dim>
					<dim>160</dim>
					<dim>160</dim>
				</port>
			</output>
		</layer>
		<layer id="85" name="Reshape_777_compressed" type="Const" version="opset1">
			<data element_type="f16" shape="1, 64, 1, 1" offset="239996" size="128" />
			<output>
				<port id="0" precision="FP16">
					<dim>1</dim>
					<dim>64</dim>
					<dim>1</dim>
					<dim>1</dim>
				</port>
			</output>
		</layer>
		<layer id="86" name="Reshape_777" type="Convert" version="opset1">
			<data destination_type="f32" />
			<rt_info>
				<attribute name="decompression" version="0" />
			</rt_info>
			<input>
				<port id="0" precision="FP16">
					<dim>1</dim>
					<dim>64</dim>
					<dim>1</dim>
					<dim>1</dim>
				</port>
			</input>
			<output>
				<port id="1" precision="FP32">
					<dim>1</dim>
					<dim>64</dim>
					<dim>1</dim>
					<dim>1</dim>
				</port>
			</output>
		</layer>
		<layer id="87" name="/model.3/cv2/cv2.0/cv3/conv/Conv" type="Add" version="opset1">
			<data auto_broadcast="numpy" />
			<input>
				<port id="0" precision="FP32">
					<dim>1</dim>
					<dim>64</dim>
					<dim>160</dim>
					<dim>160</dim>
				</port>
				<port id="1" precision="FP32">
					<dim>1</dim>
					<dim>64</dim>
					<dim>1</dim>
					<dim>1</dim>
				</port>
			</input>
			<output>
				<port id="2" precision="FP32" names="/model.3/cv2/cv2.0/cv3/conv/Conv_output_0">
					<dim>1</dim>
					<dim>64</dim>
					<dim>160</dim>
					<dim>160</dim>
				</port>
			</output>
		</layer>
		<layer id="88" name="/model.3/cv2/cv2.0/cv3/act/Mul" type="Swish" version="opset4">
			<input>
				<port id="0" precision="FP32">
					<dim>1</dim>
					<dim>64</dim>
					<dim>160</dim>
					<dim>160</dim>
				</port>
			</input>
			<output>
				<port id="1" precision="FP32" names="/model.3/cv2/cv2.0/cv3/act/Mul_output_0">
					<dim>1</dim>
					<dim>64</dim>
					<dim>160</dim>
					<dim>160</dim>
				</port>
			</output>
		</layer>
		<layer id="89" name="model.3.cv2.1.conv.weight_compressed" type="Const" version="opset1">
			<data element_type="f16" shape="64, 64, 3, 3" offset="240124" size="73728" />
			<output>
				<port id="0" precision="FP16">
					<dim>64</dim>
					<dim>64</dim>
					<dim>3</dim>
					<dim>3</dim>
				</port>
			</output>
		</layer>
		<layer id="90" name="model.3.cv2.1.conv.weight" type="Convert" version="opset1">
			<data destination_type="f32" />
			<rt_info>
				<attribute name="decompression" version="0" />
			</rt_info>
			<input>
				<port id="0" precision="FP16">
					<dim>64</dim>
					<dim>64</dim>
					<dim>3</dim>
					<dim>3</dim>
				</port>
			</input>
			<output>
				<port id="1" precision="FP32" names="model.3.cv2.1.conv.weight">
					<dim>64</dim>
					<dim>64</dim>
					<dim>3</dim>
					<dim>3</dim>
				</port>
			</output>
		</layer>
		<layer id="91" name="/model.3/cv2/cv2.1/conv/Conv/WithoutBiases" type="Convolution" version="opset1">
			<data strides="1, 1" dilations="1, 1" pads_begin="1, 1" pads_end="1, 1" auto_pad="explicit" />
			<input>
				<port id="0" precision="FP32">
					<dim>1</dim>
					<dim>64</dim>
					<dim>160</dim>
					<dim>160</dim>
				</port>
				<port id="1" precision="FP32">
					<dim>64</dim>
					<dim>64</dim>
					<dim>3</dim>
					<dim>3</dim>
				</port>
			</input>
			<output>
				<port id="2" precision="FP32">
					<dim>1</dim>
					<dim>64</dim>
					<dim>160</dim>
					<dim>160</dim>
				</port>
			</output>
		</layer>
		<layer id="92" name="Reshape_795_compressed" type="Const" version="opset1">
			<data element_type="f16" shape="1, 64, 1, 1" offset="313852" size="128" />
			<output>
				<port id="0" precision="FP16">
					<dim>1</dim>
					<dim>64</dim>
					<dim>1</dim>
					<dim>1</dim>
				</port>
			</output>
		</layer>
		<layer id="93" name="Reshape_795" type="Convert" version="opset1">
			<data destination_type="f32" />
			<rt_info>
				<attribute name="decompression" version="0" />
			</rt_info>
			<input>
				<port id="0" precision="FP16">
					<dim>1</dim>
					<dim>64</dim>
					<dim>1</dim>
					<dim>1</dim>
				</port>
			</input>
			<output>
				<port id="1" precision="FP32">
					<dim>1</dim>
					<dim>64</dim>
					<dim>1</dim>
					<dim>1</dim>
				</port>
			</output>
		</layer>
		<layer id="94" name="/model.3/cv2/cv2.1/conv/Conv" type="Add" version="opset1">
			<data auto_broadcast="numpy" />
			<input>
				<port id="0" precision="FP32">
					<dim>1</dim>
					<dim>64</dim>
					<dim>160</dim>
					<dim>160</dim>
				</port>
				<port id="1" precision="FP32">
					<dim>1</dim>
					<dim>64</dim>
					<dim>1</dim>
					<dim>1</dim>
				</port>
			</input>
			<output>
				<port id="2" precision="FP32" names="/model.3/cv2/cv2.1/conv/Conv_output_0">
					<dim>1</dim>
					<dim>64</dim>
					<dim>160</dim>
					<dim>160</dim>
				</port>
			</output>
		</layer>
		<layer id="95" name="/model.3/cv2/cv2.1/act/Mul" type="Swish" version="opset4">
			<input>
				<port id="0" precision="FP32">
					<dim>1</dim>
					<dim>64</dim>
					<dim>160</dim>
					<dim>160</dim>
				</port>
			</input>
			<output>
				<port id="1" precision="FP32" names="/model.3/cv2/cv2.1/act/Mul_output_0">
					<dim>1</dim>
					<dim>64</dim>
					<dim>160</dim>
					<dim>160</dim>
				</port>
			</output>
		</layer>
		<layer id="96" name="model.3.cv3.0.cv1.conv.weight_compressed" type="Const" version="opset1">
			<data element_type="f16" shape="32, 64, 1, 1" offset="313980" size="4096" />
			<output>
				<port id="0" precision="FP16">
					<dim>32</dim>
					<dim>64</dim>
					<dim>1</dim>
					<dim>1</dim>
				</port>
			</output>
		</layer>
		<layer id="97" name="model.3.cv3.0.cv1.conv.weight" type="Convert" version="opset1">
			<data destination_type="f32" />
			<rt_info>
				<attribute name="decompression" version="0" />
			</rt_info>
			<input>
				<port id="0" precision="FP16">
					<dim>32</dim>
					<dim>64</dim>
					<dim>1</dim>
					<dim>1</dim>
				</port>
			</input>
			<output>
				<port id="1" precision="FP32" names="model.3.cv3.0.cv1.conv.weight">
					<dim>32</dim>
					<dim>64</dim>
					<dim>1</dim>
					<dim>1</dim>
				</port>
			</output>
		</layer>
		<layer id="98" name="/model.3/cv3/cv3.0/cv1/conv/Conv/WithoutBiases" type="Convolution" version="opset1">
			<data strides="1, 1" dilations="1, 1" pads_begin="0, 0" pads_end="0, 0" auto_pad="explicit" />
			<input>
				<port id="0" precision="FP32">
					<dim>1</dim>
					<dim>64</dim>
					<dim>160</dim>
					<dim>160</dim>
				</port>
				<port id="1" precision="FP32">
					<dim>32</dim>
					<dim>64</dim>
					<dim>1</dim>
					<dim>1</dim>
				</port>
			</input>
			<output>
				<port id="2" precision="FP32">
					<dim>1</dim>
					<dim>32</dim>
					<dim>160</dim>
					<dim>160</dim>
				</port>
			</output>
		</layer>
		<layer id="99" name="Reshape_813_compressed" type="Const" version="opset1">
			<data element_type="f16" shape="1, 32, 1, 1" offset="318076" size="64" />
			<output>
				<port id="0" precision="FP16">
					<dim>1</dim>
					<dim>32</dim>
					<dim>1</dim>
					<dim>1</dim>
				</port>
			</output>
		</layer>
		<layer id="100" name="Reshape_813" type="Convert" version="opset1">
			<data destination_type="f32" />
			<rt_info>
				<attribute name="decompression" version="0" />
			</rt_info>
			<input>
				<port id="0" precision="FP16">
					<dim>1</dim>
					<dim>32</dim>
					<dim>1</dim>
					<dim>1</dim>
				</port>
			</input>
			<output>
				<port id="1" precision="FP32">
					<dim>1</dim>
					<dim>32</dim>
					<dim>1</dim>
					<dim>1</dim>
				</port>
			</output>
		</layer>
		<layer id="101" name="/model.3/cv3/cv3.0/cv1/conv/Conv" type="Add" version="opset1">
			<data auto_broadcast="numpy" />
			<input>
				<port id="0" precision="FP32">
					<dim>1</dim>
					<dim>32</dim>
					<dim>160</dim>
					<dim>160</dim>
				</port>
				<port id="1" precision="FP32">
					<dim>1</dim>
					<dim>32</dim>
					<dim>1</dim>
					<dim>1</dim>
				</port>
			</input>
			<output>
				<port id="2" precision="FP32" names="/model.3/cv3/cv3.0/cv1/conv/Conv_output_0">
					<dim>1</dim>
					<dim>32</dim>
					<dim>160</dim>
					<dim>160</dim>
				</port>
			</output>
		</layer>
		<layer id="102" name="/model.3/cv3/cv3.0/cv1/act/Mul" type="Swish" version="opset4">
			<input>
				<port id="0" precision="FP32">
					<dim>1</dim>
					<dim>32</dim>
					<dim>160</dim>
					<dim>160</dim>
				</port>
			</input>
			<output>
				<port id="1" precision="FP32" names="/model.3/cv3/cv3.0/cv1/act/Mul_output_0">
					<dim>1</dim>
					<dim>32</dim>
					<dim>160</dim>
					<dim>160</dim>
				</port>
			</output>
		</layer>
		<layer id="103" name="model.3.cv3.0.m.0.cv1.conv1.conv.weight_compressed" type="Const" version="opset1">
			<data element_type="f16" shape="32, 32, 3, 3" offset="318140" size="18432" />
			<output>
				<port id="0" precision="FP16">
					<dim>32</dim>
					<dim>32</dim>
					<dim>3</dim>
					<dim>3</dim>
				</port>
			</output>
		</layer>
		<layer id="104" name="model.3.cv3.0.m.0.cv1.conv1.conv.weight" type="Convert" version="opset1">
			<data destination_type="f32" />
			<rt_info>
				<attribute name="decompression" version="0" />
			</rt_info>
			<input>
				<port id="0" precision="FP16">
					<dim>32</dim>
					<dim>32</dim>
					<dim>3</dim>
					<dim>3</dim>
				</port>
			</input>
			<output>
				<port id="1" precision="FP32" names="model.3.cv3.0.m.0.cv1.conv1.conv.weight">
					<dim>32</dim>
					<dim>32</dim>
					<dim>3</dim>
					<dim>3</dim>
				</port>
			</output>
		</layer>
		<layer id="105" name="/model.3/cv3/cv3.0/m/m.0/cv1/conv1/conv/Conv/WithoutBiases" type="Convolution" version="opset1">
			<data strides="1, 1" dilations="1, 1" pads_begin="1, 1" pads_end="1, 1" auto_pad="explicit" />
			<input>
				<port id="0" precision="FP32">
					<dim>1</dim>
					<dim>32</dim>
					<dim>160</dim>
					<dim>160</dim>
				</port>
				<port id="1" precision="FP32">
					<dim>32</dim>
					<dim>32</dim>
					<dim>3</dim>
					<dim>3</dim>
				</port>
			</input>
			<output>
				<port id="2" precision="FP32">
					<dim>1</dim>
					<dim>32</dim>
					<dim>160</dim>
					<dim>160</dim>
				</port>
			</output>
		</layer>
		<layer id="106" name="Reshape_831_compressed" type="Const" version="opset1">
			<data element_type="f16" shape="1, 32, 1, 1" offset="336572" size="64" />
			<output>
				<port id="0" precision="FP16">
					<dim>1</dim>
					<dim>32</dim>
					<dim>1</dim>
					<dim>1</dim>
				</port>
			</output>
		</layer>
		<layer id="107" name="Reshape_831" type="Convert" version="opset1">
			<data destination_type="f32" />
			<rt_info>
				<attribute name="decompression" version="0" />
			</rt_info>
			<input>
				<port id="0" precision="FP16">
					<dim>1</dim>
					<dim>32</dim>
					<dim>1</dim>
					<dim>1</dim>
				</port>
			</input>
			<output>
				<port id="1" precision="FP32">
					<dim>1</dim>
					<dim>32</dim>
					<dim>1</dim>
					<dim>1</dim>
				</port>
			</output>
		</layer>
		<layer id="108" name="/model.3/cv3/cv3.0/m/m.0/cv1/conv1/conv/Conv" type="Add" version="opset1">
			<data auto_broadcast="numpy" />
			<input>
				<port id="0" precision="FP32">
					<dim>1</dim>
					<dim>32</dim>
					<dim>160</dim>
					<dim>160</dim>
				</port>
				<port id="1" precision="FP32">
					<dim>1</dim>
					<dim>32</dim>
					<dim>1</dim>
					<dim>1</dim>
				</port>
			</input>
			<output>
				<port id="2" precision="FP32" names="/model.3/cv3/cv3.0/m/m.0/cv1/conv1/conv/Conv_output_0">
					<dim>1</dim>
					<dim>32</dim>
					<dim>160</dim>
					<dim>160</dim>
				</port>
			</output>
		</layer>
		<layer id="109" name="model.3.cv3.0.m.0.cv1.conv2.conv.weight_compressed" type="Const" version="opset1">
			<data element_type="f16" shape="32, 32, 1, 1" offset="336636" size="2048" />
			<output>
				<port id="0" precision="FP16">
					<dim>32</dim>
					<dim>32</dim>
					<dim>1</dim>
					<dim>1</dim>
				</port>
			</output>
		</layer>
		<layer id="110" name="model.3.cv3.0.m.0.cv1.conv2.conv.weight" type="Convert" version="opset1">
			<data destination_type="f32" />
			<rt_info>
				<attribute name="decompression" version="0" />
			</rt_info>
			<input>
				<port id="0" precision="FP16">
					<dim>32</dim>
					<dim>32</dim>
					<dim>1</dim>
					<dim>1</dim>
				</port>
			</input>
			<output>
				<port id="1" precision="FP32" names="model.3.cv3.0.m.0.cv1.conv2.conv.weight">
					<dim>32</dim>
					<dim>32</dim>
					<dim>1</dim>
					<dim>1</dim>
				</port>
			</output>
		</layer>
		<layer id="111" name="/model.3/cv3/cv3.0/m/m.0/cv1/conv2/conv/Conv/WithoutBiases" type="Convolution" version="opset1">
			<data strides="1, 1" dilations="1, 1" pads_begin="0, 0" pads_end="0, 0" auto_pad="explicit" />
			<input>
				<port id="0" precision="FP32">
					<dim>1</dim>
					<dim>32</dim>
					<dim>160</dim>
					<dim>160</dim>
				</port>
				<port id="1" precision="FP32">
					<dim>32</dim>
					<dim>32</dim>
					<dim>1</dim>
					<dim>1</dim>
				</port>
			</input>
			<output>
				<port id="2" precision="FP32">
					<dim>1</dim>
					<dim>32</dim>
					<dim>160</dim>
					<dim>160</dim>
				</port>
			</output>
		</layer>
		<layer id="112" name="Reshape_847_compressed" type="Const" version="opset1">
			<data element_type="f16" shape="1, 32, 1, 1" offset="338684" size="64" />
			<output>
				<port id="0" precision="FP16">
					<dim>1</dim>
					<dim>32</dim>
					<dim>1</dim>
					<dim>1</dim>
				</port>
			</output>
		</layer>
		<layer id="113" name="Reshape_847" type="Convert" version="opset1">
			<data destination_type="f32" />
			<rt_info>
				<attribute name="decompression" version="0" />
			</rt_info>
			<input>
				<port id="0" precision="FP16">
					<dim>1</dim>
					<dim>32</dim>
					<dim>1</dim>
					<dim>1</dim>
				</port>
			</input>
			<output>
				<port id="1" precision="FP32">
					<dim>1</dim>
					<dim>32</dim>
					<dim>1</dim>
					<dim>1</dim>
				</port>
			</output>
		</layer>
		<layer id="114" name="/model.3/cv3/cv3.0/m/m.0/cv1/conv2/conv/Conv" type="Add" version="opset1">
			<data auto_broadcast="numpy" />
			<input>
				<port id="0" precision="FP32">
					<dim>1</dim>
					<dim>32</dim>
					<dim>160</dim>
					<dim>160</dim>
				</port>
				<port id="1" precision="FP32">
					<dim>1</dim>
					<dim>32</dim>
					<dim>1</dim>
					<dim>1</dim>
				</port>
			</input>
			<output>
				<port id="2" precision="FP32" names="/model.3/cv3/cv3.0/m/m.0/cv1/conv2/conv/Conv_output_0">
					<dim>1</dim>
					<dim>32</dim>
					<dim>160</dim>
					<dim>160</dim>
				</port>
			</output>
		</layer>
		<layer id="115" name="/model.3/cv3/cv3.0/m/m.0/cv1/Add" type="Add" version="opset1">
			<data auto_broadcast="numpy" />
			<input>
				<port id="0" precision="FP32">
					<dim>1</dim>
					<dim>32</dim>
					<dim>160</dim>
					<dim>160</dim>
				</port>
				<port id="1" precision="FP32">
					<dim>1</dim>
					<dim>32</dim>
					<dim>160</dim>
					<dim>160</dim>
				</port>
			</input>
			<output>
				<port id="2" precision="FP32" names="/model.3/cv3/cv3.0/m/m.0/cv1/Add_1_output_0,/model.3/cv3/cv3.0/m/m.0/cv1/Add_output_0">
					<dim>1</dim>
					<dim>32</dim>
					<dim>160</dim>
					<dim>160</dim>
				</port>
			</output>
		</layer>
		<layer id="116" name="/model.3/cv3/cv3.0/m/m.0/cv1/act/Mul" type="Swish" version="opset4">
			<input>
				<port id="0" precision="FP32">
					<dim>1</dim>
					<dim>32</dim>
					<dim>160</dim>
					<dim>160</dim>
				</port>
			</input>
			<output>
				<port id="1" precision="FP32" names="/model.3/cv3/cv3.0/m/m.0/cv1/act/Mul_output_0">
					<dim>1</dim>
					<dim>32</dim>
					<dim>160</dim>
					<dim>160</dim>
				</port>
			</output>
		</layer>
		<layer id="117" name="model.3.cv3.0.m.0.cv2.conv.weight_compressed" type="Const" version="opset1">
			<data element_type="f16" shape="32, 32, 3, 3" offset="338748" size="18432" />
			<output>
				<port id="0" precision="FP16">
					<dim>32</dim>
					<dim>32</dim>
					<dim>3</dim>
					<dim>3</dim>
				</port>
			</output>
		</layer>
		<layer id="118" name="model.3.cv3.0.m.0.cv2.conv.weight" type="Convert" version="opset1">
			<data destination_type="f32" />
			<rt_info>
				<attribute name="decompression" version="0" />
			</rt_info>
			<input>
				<port id="0" precision="FP16">
					<dim>32</dim>
					<dim>32</dim>
					<dim>3</dim>
					<dim>3</dim>
				</port>
			</input>
			<output>
				<port id="1" precision="FP32" names="model.3.cv3.0.m.0.cv2.conv.weight">
					<dim>32</dim>
					<dim>32</dim>
					<dim>3</dim>
					<dim>3</dim>
				</port>
			</output>
		</layer>
		<layer id="119" name="/model.3/cv3/cv3.0/m/m.0/cv2/conv/Conv/WithoutBiases" type="Convolution" version="opset1">
			<data strides="1, 1" dilations="1, 1" pads_begin="1, 1" pads_end="1, 1" auto_pad="explicit" />
			<input>
				<port id="0" precision="FP32">
					<dim>1</dim>
					<dim>32</dim>
					<dim>160</dim>
					<dim>160</dim>
				</port>
				<port id="1" precision="FP32">
					<dim>32</dim>
					<dim>32</dim>
					<dim>3</dim>
					<dim>3</dim>
				</port>
			</input>
			<output>
				<port id="2" precision="FP32">
					<dim>1</dim>
					<dim>32</dim>
					<dim>160</dim>
					<dim>160</dim>
				</port>
			</output>
		</layer>
		<layer id="120" name="Reshape_868_compressed" type="Const" version="opset1">
			<data element_type="f16" shape="1, 32, 1, 1" offset="357180" size="64" />
			<output>
				<port id="0" precision="FP16">
					<dim>1</dim>
					<dim>32</dim>
					<dim>1</dim>
					<dim>1</dim>
				</port>
			</output>
		</layer>
		<layer id="121" name="Reshape_868" type="Convert" version="opset1">
			<data destination_type="f32" />
			<rt_info>
				<attribute name="decompression" version="0" />
			</rt_info>
			<input>
				<port id="0" precision="FP16">
					<dim>1</dim>
					<dim>32</dim>
					<dim>1</dim>
					<dim>1</dim>
				</port>
			</input>
			<output>
				<port id="1" precision="FP32">
					<dim>1</dim>
					<dim>32</dim>
					<dim>1</dim>
					<dim>1</dim>
				</port>
			</output>
		</layer>
		<layer id="122" name="/model.3/cv3/cv3.0/m/m.0/cv2/conv/Conv" type="Add" version="opset1">
			<data auto_broadcast="numpy" />
			<input>
				<port id="0" precision="FP32">
					<dim>1</dim>
					<dim>32</dim>
					<dim>160</dim>
					<dim>160</dim>
				</port>
				<port id="1" precision="FP32">
					<dim>1</dim>
					<dim>32</dim>
					<dim>1</dim>
					<dim>1</dim>
				</port>
			</input>
			<output>
				<port id="2" precision="FP32" names="/model.3/cv3/cv3.0/m/m.0/cv2/conv/Conv_output_0">
					<dim>1</dim>
					<dim>32</dim>
					<dim>160</dim>
					<dim>160</dim>
				</port>
			</output>
		</layer>
		<layer id="123" name="/model.3/cv3/cv3.0/m/m.0/cv2/act/Mul" type="Swish" version="opset4">
			<input>
				<port id="0" precision="FP32">
					<dim>1</dim>
					<dim>32</dim>
					<dim>160</dim>
					<dim>160</dim>
				</port>
			</input>
			<output>
				<port id="1" precision="FP32" names="/model.3/cv3/cv3.0/m/m.0/cv2/act/Mul_output_0">
					<dim>1</dim>
					<dim>32</dim>
					<dim>160</dim>
					<dim>160</dim>
				</port>
			</output>
		</layer>
		<layer id="124" name="/model.3/cv3/cv3.0/m/m.0/Add" type="Add" version="opset1">
			<data auto_broadcast="numpy" />
			<input>
				<port id="0" precision="FP32">
					<dim>1</dim>
					<dim>32</dim>
					<dim>160</dim>
					<dim>160</dim>
				</port>
				<port id="1" precision="FP32">
					<dim>1</dim>
					<dim>32</dim>
					<dim>160</dim>
					<dim>160</dim>
				</port>
			</input>
			<output>
				<port id="2" precision="FP32" names="/model.3/cv3/cv3.0/m/m.0/Add_output_0">
					<dim>1</dim>
					<dim>32</dim>
					<dim>160</dim>
					<dim>160</dim>
				</port>
			</output>
		</layer>
		<layer id="125" name="model.3.cv3.0.cv2.conv.weight_compressed" type="Const" version="opset1">
			<data element_type="f16" shape="32, 64, 1, 1" offset="357244" size="4096" />
			<output>
				<port id="0" precision="FP16">
					<dim>32</dim>
					<dim>64</dim>
					<dim>1</dim>
					<dim>1</dim>
				</port>
			</output>
		</layer>
		<layer id="126" name="model.3.cv3.0.cv2.conv.weight" type="Convert" version="opset1">
			<data destination_type="f32" />
			<rt_info>
				<attribute name="decompression" version="0" />
			</rt_info>
			<input>
				<port id="0" precision="FP16">
					<dim>32</dim>
					<dim>64</dim>
					<dim>1</dim>
					<dim>1</dim>
				</port>
			</input>
			<output>
				<port id="1" precision="FP32" names="model.3.cv3.0.cv2.conv.weight">
					<dim>32</dim>
					<dim>64</dim>
					<dim>1</dim>
					<dim>1</dim>
				</port>
			</output>
		</layer>
		<layer id="127" name="/model.3/cv3/cv3.0/cv2/conv/Conv/WithoutBiases" type="Convolution" version="opset1">
			<data strides="1, 1" dilations="1, 1" pads_begin="0, 0" pads_end="0, 0" auto_pad="explicit" />
			<input>
				<port id="0" precision="FP32">
					<dim>1</dim>
					<dim>64</dim>
					<dim>160</dim>
					<dim>160</dim>
				</port>
				<port id="1" precision="FP32">
					<dim>32</dim>
					<dim>64</dim>
					<dim>1</dim>
					<dim>1</dim>
				</port>
			</input>
			<output>
				<port id="2" precision="FP32">
					<dim>1</dim>
					<dim>32</dim>
					<dim>160</dim>
					<dim>160</dim>
				</port>
			</output>
		</layer>
		<layer id="128" name="Reshape_887_compressed" type="Const" version="opset1">
			<data element_type="f16" shape="1, 32, 1, 1" offset="361340" size="64" />
			<output>
				<port id="0" precision="FP16">
					<dim>1</dim>
					<dim>32</dim>
					<dim>1</dim>
					<dim>1</dim>
				</port>
			</output>
		</layer>
		<layer id="129" name="Reshape_887" type="Convert" version="opset1">
			<data destination_type="f32" />
			<rt_info>
				<attribute name="decompression" version="0" />
			</rt_info>
			<input>
				<port id="0" precision="FP16">
					<dim>1</dim>
					<dim>32</dim>
					<dim>1</dim>
					<dim>1</dim>
				</port>
			</input>
			<output>
				<port id="1" precision="FP32">
					<dim>1</dim>
					<dim>32</dim>
					<dim>1</dim>
					<dim>1</dim>
				</port>
			</output>
		</layer>
		<layer id="130" name="/model.3/cv3/cv3.0/cv2/conv/Conv" type="Add" version="opset1">
			<data auto_broadcast="numpy" />
			<input>
				<port id="0" precision="FP32">
					<dim>1</dim>
					<dim>32</dim>
					<dim>160</dim>
					<dim>160</dim>
				</port>
				<port id="1" precision="FP32">
					<dim>1</dim>
					<dim>32</dim>
					<dim>1</dim>
					<dim>1</dim>
				</port>
			</input>
			<output>
				<port id="2" precision="FP32" names="/model.3/cv3/cv3.0/cv2/conv/Conv_output_0">
					<dim>1</dim>
					<dim>32</dim>
					<dim>160</dim>
					<dim>160</dim>
				</port>
			</output>
		</layer>
		<layer id="131" name="/model.3/cv3/cv3.0/cv2/act/Mul" type="Swish" version="opset4">
			<input>
				<port id="0" precision="FP32">
					<dim>1</dim>
					<dim>32</dim>
					<dim>160</dim>
					<dim>160</dim>
				</port>
			</input>
			<output>
				<port id="1" precision="FP32" names="/model.3/cv3/cv3.0/cv2/act/Mul_output_0">
					<dim>1</dim>
					<dim>32</dim>
					<dim>160</dim>
					<dim>160</dim>
				</port>
			</output>
		</layer>
		<layer id="132" name="/model.3/cv3/cv3.0/Concat" type="Concat" version="opset1">
			<data axis="1" />
			<input>
				<port id="0" precision="FP32">
					<dim>1</dim>
					<dim>32</dim>
					<dim>160</dim>
					<dim>160</dim>
				</port>
				<port id="1" precision="FP32">
					<dim>1</dim>
					<dim>32</dim>
					<dim>160</dim>
					<dim>160</dim>
				</port>
			</input>
			<output>
				<port id="2" precision="FP32" names="/model.3/cv3/cv3.0/Concat_output_0">
					<dim>1</dim>
					<dim>64</dim>
					<dim>160</dim>
					<dim>160</dim>
				</port>
			</output>
		</layer>
		<layer id="133" name="model.3.cv3.0.cv3.conv.weight_compressed" type="Const" version="opset1">
			<data element_type="f16" shape="64, 64, 1, 1" offset="361404" size="8192" />
			<output>
				<port id="0" precision="FP16">
					<dim>64</dim>
					<dim>64</dim>
					<dim>1</dim>
					<dim>1</dim>
				</port>
			</output>
		</layer>
		<layer id="134" name="model.3.cv3.0.cv3.conv.weight" type="Convert" version="opset1">
			<data destination_type="f32" />
			<rt_info>
				<attribute name="decompression" version="0" />
			</rt_info>
			<input>
				<port id="0" precision="FP16">
					<dim>64</dim>
					<dim>64</dim>
					<dim>1</dim>
					<dim>1</dim>
				</port>
			</input>
			<output>
				<port id="1" precision="FP32" names="model.3.cv3.0.cv3.conv.weight">
					<dim>64</dim>
					<dim>64</dim>
					<dim>1</dim>
					<dim>1</dim>
				</port>
			</output>
		</layer>
		<layer id="135" name="/model.3/cv3/cv3.0/cv3/conv/Conv/WithoutBiases" type="Convolution" version="opset1">
			<data strides="1, 1" dilations="1, 1" pads_begin="0, 0" pads_end="0, 0" auto_pad="explicit" />
			<input>
				<port id="0" precision="FP32">
					<dim>1</dim>
					<dim>64</dim>
					<dim>160</dim>
					<dim>160</dim>
				</port>
				<port id="1" precision="FP32">
					<dim>64</dim>
					<dim>64</dim>
					<dim>1</dim>
					<dim>1</dim>
				</port>
			</input>
			<output>
				<port id="2" precision="FP32">
					<dim>1</dim>
					<dim>64</dim>
					<dim>160</dim>
					<dim>160</dim>
				</port>
			</output>
		</layer>
		<layer id="136" name="Reshape_906_compressed" type="Const" version="opset1">
			<data element_type="f16" shape="1, 64, 1, 1" offset="369596" size="128" />
			<output>
				<port id="0" precision="FP16">
					<dim>1</dim>
					<dim>64</dim>
					<dim>1</dim>
					<dim>1</dim>
				</port>
			</output>
		</layer>
		<layer id="137" name="Reshape_906" type="Convert" version="opset1">
			<data destination_type="f32" />
			<rt_info>
				<attribute name="decompression" version="0" />
			</rt_info>
			<input>
				<port id="0" precision="FP16">
					<dim>1</dim>
					<dim>64</dim>
					<dim>1</dim>
					<dim>1</dim>
				</port>
			</input>
			<output>
				<port id="1" precision="FP32">
					<dim>1</dim>
					<dim>64</dim>
					<dim>1</dim>
					<dim>1</dim>
				</port>
			</output>
		</layer>
		<layer id="138" name="/model.3/cv3/cv3.0/cv3/conv/Conv" type="Add" version="opset1">
			<data auto_broadcast="numpy" />
			<input>
				<port id="0" precision="FP32">
					<dim>1</dim>
					<dim>64</dim>
					<dim>160</dim>
					<dim>160</dim>
				</port>
				<port id="1" precision="FP32">
					<dim>1</dim>
					<dim>64</dim>
					<dim>1</dim>
					<dim>1</dim>
				</port>
			</input>
			<output>
				<port id="2" precision="FP32" names="/model.3/cv3/cv3.0/cv3/conv/Conv_output_0">
					<dim>1</dim>
					<dim>64</dim>
					<dim>160</dim>
					<dim>160</dim>
				</port>
			</output>
		</layer>
		<layer id="139" name="/model.3/cv3/cv3.0/cv3/act/Mul" type="Swish" version="opset4">
			<input>
				<port id="0" precision="FP32">
					<dim>1</dim>
					<dim>64</dim>
					<dim>160</dim>
					<dim>160</dim>
				</port>
			</input>
			<output>
				<port id="1" precision="FP32" names="/model.3/cv3/cv3.0/cv3/act/Mul_output_0">
					<dim>1</dim>
					<dim>64</dim>
					<dim>160</dim>
					<dim>160</dim>
				</port>
			</output>
		</layer>
		<layer id="140" name="model.3.cv3.1.conv.weight_compressed" type="Const" version="opset1">
			<data element_type="f16" shape="64, 64, 3, 3" offset="369724" size="73728" />
			<output>
				<port id="0" precision="FP16">
					<dim>64</dim>
					<dim>64</dim>
					<dim>3</dim>
					<dim>3</dim>
				</port>
			</output>
		</layer>
		<layer id="141" name="model.3.cv3.1.conv.weight" type="Convert" version="opset1">
			<data destination_type="f32" />
			<rt_info>
				<attribute name="decompression" version="0" />
			</rt_info>
			<input>
				<port id="0" precision="FP16">
					<dim>64</dim>
					<dim>64</dim>
					<dim>3</dim>
					<dim>3</dim>
				</port>
			</input>
			<output>
				<port id="1" precision="FP32" names="model.3.cv3.1.conv.weight">
					<dim>64</dim>
					<dim>64</dim>
					<dim>3</dim>
					<dim>3</dim>
				</port>
			</output>
		</layer>
		<layer id="142" name="/model.3/cv3/cv3.1/conv/Conv/WithoutBiases" type="Convolution" version="opset1">
			<data strides="1, 1" dilations="1, 1" pads_begin="1, 1" pads_end="1, 1" auto_pad="explicit" />
			<input>
				<port id="0" precision="FP32">
					<dim>1</dim>
					<dim>64</dim>
					<dim>160</dim>
					<dim>160</dim>
				</port>
				<port id="1" precision="FP32">
					<dim>64</dim>
					<dim>64</dim>
					<dim>3</dim>
					<dim>3</dim>
				</port>
			</input>
			<output>
				<port id="2" precision="FP32">
					<dim>1</dim>
					<dim>64</dim>
					<dim>160</dim>
					<dim>160</dim>
				</port>
			</output>
		</layer>
		<layer id="143" name="Reshape_924_compressed" type="Const" version="opset1">
			<data element_type="f16" shape="1, 64, 1, 1" offset="443452" size="128" />
			<output>
				<port id="0" precision="FP16">
					<dim>1</dim>
					<dim>64</dim>
					<dim>1</dim>
					<dim>1</dim>
				</port>
			</output>
		</layer>
		<layer id="144" name="Reshape_924" type="Convert" version="opset1">
			<data destination_type="f32" />
			<rt_info>
				<attribute name="decompression" version="0" />
			</rt_info>
			<input>
				<port id="0" precision="FP16">
					<dim>1</dim>
					<dim>64</dim>
					<dim>1</dim>
					<dim>1</dim>
				</port>
			</input>
			<output>
				<port id="1" precision="FP32">
					<dim>1</dim>
					<dim>64</dim>
					<dim>1</dim>
					<dim>1</dim>
				</port>
			</output>
		</layer>
		<layer id="145" name="/model.3/cv3/cv3.1/conv/Conv" type="Add" version="opset1">
			<data auto_broadcast="numpy" />
			<input>
				<port id="0" precision="FP32">
					<dim>1</dim>
					<dim>64</dim>
					<dim>160</dim>
					<dim>160</dim>
				</port>
				<port id="1" precision="FP32">
					<dim>1</dim>
					<dim>64</dim>
					<dim>1</dim>
					<dim>1</dim>
				</port>
			</input>
			<output>
				<port id="2" precision="FP32" names="/model.3/cv3/cv3.1/conv/Conv_output_0">
					<dim>1</dim>
					<dim>64</dim>
					<dim>160</dim>
					<dim>160</dim>
				</port>
			</output>
		</layer>
		<layer id="146" name="/model.3/cv3/cv3.1/act/Mul" type="Swish" version="opset4">
			<input>
				<port id="0" precision="FP32">
					<dim>1</dim>
					<dim>64</dim>
					<dim>160</dim>
					<dim>160</dim>
				</port>
			</input>
			<output>
				<port id="1" precision="FP32" names="/model.3/cv3/cv3.1/act/Mul_output_0">
					<dim>1</dim>
					<dim>64</dim>
					<dim>160</dim>
					<dim>160</dim>
				</port>
			</output>
		</layer>
		<layer id="147" name="/model.3/Concat" type="Concat" version="opset1">
			<data axis="1" />
			<input>
				<port id="0" precision="FP32">
					<dim>1</dim>
					<dim>64</dim>
					<dim>160</dim>
					<dim>160</dim>
				</port>
				<port id="1" precision="FP32">
					<dim>1</dim>
					<dim>64</dim>
					<dim>160</dim>
					<dim>160</dim>
				</port>
				<port id="2" precision="FP32">
					<dim>1</dim>
					<dim>64</dim>
					<dim>160</dim>
					<dim>160</dim>
				</port>
				<port id="3" precision="FP32">
					<dim>1</dim>
					<dim>64</dim>
					<dim>160</dim>
					<dim>160</dim>
				</port>
			</input>
			<output>
				<port id="4" precision="FP32" names="/model.3/Concat_output_0">
					<dim>1</dim>
					<dim>256</dim>
					<dim>160</dim>
					<dim>160</dim>
				</port>
			</output>
		</layer>
		<layer id="148" name="model.3.cv4.conv.weight_compressed" type="Const" version="opset1">
			<data element_type="f16" shape="256, 256, 1, 1" offset="443580" size="131072" />
			<output>
				<port id="0" precision="FP16">
					<dim>256</dim>
					<dim>256</dim>
					<dim>1</dim>
					<dim>1</dim>
				</port>
			</output>
		</layer>
		<layer id="149" name="model.3.cv4.conv.weight" type="Convert" version="opset1">
			<data destination_type="f32" />
			<rt_info>
				<attribute name="decompression" version="0" />
			</rt_info>
			<input>
				<port id="0" precision="FP16">
					<dim>256</dim>
					<dim>256</dim>
					<dim>1</dim>
					<dim>1</dim>
				</port>
			</input>
			<output>
				<port id="1" precision="FP32" names="model.3.cv4.conv.weight">
					<dim>256</dim>
					<dim>256</dim>
					<dim>1</dim>
					<dim>1</dim>
				</port>
			</output>
		</layer>
		<layer id="150" name="/model.3/cv4/conv/Conv/WithoutBiases" type="Convolution" version="opset1">
			<data strides="1, 1" dilations="1, 1" pads_begin="0, 0" pads_end="0, 0" auto_pad="explicit" />
			<input>
				<port id="0" precision="FP32">
					<dim>1</dim>
					<dim>256</dim>
					<dim>160</dim>
					<dim>160</dim>
				</port>
				<port id="1" precision="FP32">
					<dim>256</dim>
					<dim>256</dim>
					<dim>1</dim>
					<dim>1</dim>
				</port>
			</input>
			<output>
				<port id="2" precision="FP32">
					<dim>1</dim>
					<dim>256</dim>
					<dim>160</dim>
					<dim>160</dim>
				</port>
			</output>
		</layer>
		<layer id="151" name="Reshape_943_compressed" type="Const" version="opset1">
			<data element_type="f16" shape="1, 256, 1, 1" offset="574652" size="512" />
			<output>
				<port id="0" precision="FP16">
					<dim>1</dim>
					<dim>256</dim>
					<dim>1</dim>
					<dim>1</dim>
				</port>
			</output>
		</layer>
		<layer id="152" name="Reshape_943" type="Convert" version="opset1">
			<data destination_type="f32" />
			<rt_info>
				<attribute name="decompression" version="0" />
			</rt_info>
			<input>
				<port id="0" precision="FP16">
					<dim>1</dim>
					<dim>256</dim>
					<dim>1</dim>
					<dim>1</dim>
				</port>
			</input>
			<output>
				<port id="1" precision="FP32">
					<dim>1</dim>
					<dim>256</dim>
					<dim>1</dim>
					<dim>1</dim>
				</port>
			</output>
		</layer>
		<layer id="153" name="/model.3/cv4/conv/Conv" type="Add" version="opset1">
			<data auto_broadcast="numpy" />
			<input>
				<port id="0" precision="FP32">
					<dim>1</dim>
					<dim>256</dim>
					<dim>160</dim>
					<dim>160</dim>
				</port>
				<port id="1" precision="FP32">
					<dim>1</dim>
					<dim>256</dim>
					<dim>1</dim>
					<dim>1</dim>
				</port>
			</input>
			<output>
				<port id="2" precision="FP32" names="/model.3/cv4/conv/Conv_output_0">
					<dim>1</dim>
					<dim>256</dim>
					<dim>160</dim>
					<dim>160</dim>
				</port>
			</output>
		</layer>
		<layer id="154" name="/model.3/cv4/act/Mul" type="Swish" version="opset4">
			<input>
				<port id="0" precision="FP32">
					<dim>1</dim>
					<dim>256</dim>
					<dim>160</dim>
					<dim>160</dim>
				</port>
			</input>
			<output>
				<port id="1" precision="FP32" names="/model.3/cv4/act/Mul_output_0">
					<dim>1</dim>
					<dim>256</dim>
					<dim>160</dim>
					<dim>160</dim>
				</port>
			</output>
		</layer>
		<layer id="155" name="/model.4/AveragePool" type="AvgPool" version="opset1">
			<data kernel="2, 2" strides="1, 1" pads_begin="0, 0" pads_end="0, 0" exclude-pad="false" auto_pad="explicit" rounding_type="floor" />
			<input>
				<port id="0" precision="FP32">
					<dim>1</dim>
					<dim>256</dim>
					<dim>160</dim>
					<dim>160</dim>
				</port>
			</input>
			<output>
				<port id="1" precision="FP32" names="/model.4/AveragePool_output_0">
					<dim>1</dim>
					<dim>256</dim>
					<dim>159</dim>
					<dim>159</dim>
				</port>
			</output>
		</layer>
		<layer id="156" name="Constant_18409" type="Const" version="opset1">
			<data element_type="i64" shape="2" offset="184320" size="16" />
			<rt_info>
				<attribute name="precise" version="0" />
			</rt_info>
			<output>
				<port id="0" precision="I64">
					<dim>2</dim>
				</port>
			</output>
		</layer>
		<layer id="157" name="Constant_18410" type="Const" version="opset1">
			<data element_type="i64" shape="2" offset="184320" size="16" />
			<rt_info>
				<attribute name="precise" version="0" />
			</rt_info>
			<output>
				<port id="0" precision="I64">
					<dim>2</dim>
				</port>
			</output>
		</layer>
		<layer id="158" name="Constant_18406" type="Const" version="opset1">
			<data element_type="i64" shape="1" offset="184336" size="8" />
			<rt_info>
				<attribute name="precise" version="0" />
			</rt_info>
			<output>
				<port id="0" precision="I64">
					<dim>1</dim>
				</port>
			</output>
		</layer>
		<layer id="159" name="/model.4/Shape" type="ShapeOf" version="opset3">
			<data output_type="i64" />
			<input>
				<port id="0" precision="FP32">
					<dim>1</dim>
					<dim>256</dim>
					<dim>159</dim>
					<dim>159</dim>
				</port>
			</input>
			<output>
				<port id="1" precision="I64" names="/model.4/Shape_output_0">
					<dim>4</dim>
				</port>
			</output>
		</layer>
		<layer id="160" name="/model.4/Constant" type="Const" version="opset1">
			<data element_type="i64" shape="1" offset="184336" size="8" />
			<rt_info>
				<attribute name="precise" version="0" />
			</rt_info>
			<output>
				<port id="0" precision="I64" names="/model.4/Constant_output_0">
					<dim>1</dim>
				</port>
			</output>
		</layer>
		<layer id="161" name="Constant_952" type="Const" version="opset1">
			<data element_type="i64" shape="" offset="184344" size="8" />
			<rt_info>
				<attribute name="precise" version="0" />
			</rt_info>
			<output>
				<port id="0" precision="I64" />
			</output>
		</layer>
		<layer id="162" name="/model.4/Gather" type="Gather" version="opset8">
			<data batch_dims="0" />
			<input>
				<port id="0" precision="I64">
					<dim>4</dim>
				</port>
				<port id="1" precision="I64">
					<dim>1</dim>
				</port>
				<port id="2" precision="I64" />
			</input>
			<output>
				<port id="3" precision="I64" names="/model.4/Gather_output_0">
					<dim>1</dim>
				</port>
			</output>
		</layer>
		<layer id="163" name="/model.4/Constant_2" type="Const" version="opset1">
			<data element_type="i64" shape="1" offset="184336" size="8" />
			<rt_info>
				<attribute name="precise" version="0" />
			</rt_info>
			<output>
				<port id="0" precision="I64" names="/model.4/Constant_2_output_0">
					<dim>1</dim>
				</port>
			</output>
		</layer>
		<layer id="164" name="/model.4/Add" type="Add" version="opset1">
			<data auto_broadcast="numpy" />
			<input>
				<port id="0" precision="I64">
					<dim>1</dim>
				</port>
				<port id="1" precision="I64">
					<dim>1</dim>
				</port>
			</input>
			<output>
				<port id="2" precision="I64" names="/model.4/Add_output_0">
					<dim>1</dim>
				</port>
			</output>
		</layer>
		<layer id="165" name="/model.4/Constant_3" type="Const" version="opset1">
			<data element_type="i64" shape="1" offset="184352" size="8" />
			<rt_info>
				<attribute name="precise" version="0" />
			</rt_info>
			<output>
				<port id="0" precision="I64" names="/model.4/Constant_3_output_0">
					<dim>1</dim>
				</port>
			</output>
		</layer>
		<layer id="166" name="/model.4/Div" type="Divide" version="opset1">
			<data auto_broadcast="numpy" m_pythondiv="true" />
			<input>
				<port id="0" precision="I64">
					<dim>1</dim>
				</port>
				<port id="1" precision="I64">
					<dim>1</dim>
				</port>
			</input>
			<output>
				<port id="2" precision="I64" names="/model.4/Div_output_0,/model.4/Mul_output_0">
					<dim>1</dim>
				</port>
			</output>
		</layer>
		<layer id="167" name="Constant_18405" type="Const" version="opset1">
			<data element_type="i32" shape="1" offset="184360" size="4" />
			<rt_info>
				<attribute name="precise" version="0" />
			</rt_info>
			<output>
				<port id="0" precision="I32">
					<dim>1</dim>
				</port>
			</output>
		</layer>
		<layer id="168" name="ScatterUpdate_18411" type="ScatterUpdate" version="opset3">
			<input>
				<port id="0" precision="I64">
					<dim>2</dim>
				</port>
				<port id="1" precision="I64">
					<dim>1</dim>
				</port>
				<port id="2" precision="I64">
					<dim>1</dim>
				</port>
				<port id="3" precision="I32">
					<dim>1</dim>
				</port>
			</input>
			<output>
				<port id="4" precision="I64">
					<dim>2</dim>
				</port>
			</output>
		</layer>
		<layer id="169" name="Constant_18414" type="Const" version="opset1">
			<data element_type="i64" shape="2" offset="184364" size="16" />
			<rt_info>
				<attribute name="precise" version="0" />
			</rt_info>
			<output>
				<port id="0" precision="I64">
					<dim>2</dim>
				</port>
			</output>
		</layer>
		<layer id="170" name="/model.4/Slice" type="StridedSlice" version="opset1">
			<data begin_mask="1, 0" end_mask="1, 0" new_axis_mask="" shrink_axis_mask="" ellipsis_mask="" />
			<input>
				<port id="0" precision="FP32">
					<dim>1</dim>
					<dim>256</dim>
					<dim>159</dim>
					<dim>159</dim>
				</port>
				<port id="1" precision="I64">
					<dim>2</dim>
				</port>
				<port id="2" precision="I64">
					<dim>2</dim>
				</port>
				<port id="3" precision="I64">
					<dim>2</dim>
				</port>
			</input>
			<output>
				<port id="4" precision="FP32" names="/model.4/Slice_output_0">
					<dim>1</dim>
					<dim>128</dim>
					<dim>159</dim>
					<dim>159</dim>
				</port>
			</output>
		</layer>
		<layer id="171" name="model.4.cv1.conv.weight_compressed" type="Const" version="opset1">
			<data element_type="f16" shape="128, 128, 3, 3" offset="575164" size="294912" />
			<output>
				<port id="0" precision="FP16">
					<dim>128</dim>
					<dim>128</dim>
					<dim>3</dim>
					<dim>3</dim>
				</port>
			</output>
		</layer>
		<layer id="172" name="model.4.cv1.conv.weight" type="Convert" version="opset1">
			<data destination_type="f32" />
			<rt_info>
				<attribute name="decompression" version="0" />
			</rt_info>
			<input>
				<port id="0" precision="FP16">
					<dim>128</dim>
					<dim>128</dim>
					<dim>3</dim>
					<dim>3</dim>
				</port>
			</input>
			<output>
				<port id="1" precision="FP32" names="model.4.cv1.conv.weight">
					<dim>128</dim>
					<dim>128</dim>
					<dim>3</dim>
					<dim>3</dim>
				</port>
			</output>
		</layer>
		<layer id="173" name="/model.4/cv1/conv/Conv/WithoutBiases" type="Convolution" version="opset1">
			<data strides="2, 2" dilations="1, 1" pads_begin="1, 1" pads_end="1, 1" auto_pad="explicit" />
			<input>
				<port id="0" precision="FP32">
					<dim>1</dim>
					<dim>128</dim>
					<dim>159</dim>
					<dim>159</dim>
				</port>
				<port id="1" precision="FP32">
					<dim>128</dim>
					<dim>128</dim>
					<dim>3</dim>
					<dim>3</dim>
				</port>
			</input>
			<output>
				<port id="2" precision="FP32">
					<dim>1</dim>
					<dim>128</dim>
					<dim>80</dim>
					<dim>80</dim>
				</port>
			</output>
		</layer>
		<layer id="174" name="Reshape_1071_compressed" type="Const" version="opset1">
			<data element_type="f16" shape="1, 128, 1, 1" offset="870076" size="256" />
			<output>
				<port id="0" precision="FP16">
					<dim>1</dim>
					<dim>128</dim>
					<dim>1</dim>
					<dim>1</dim>
				</port>
			</output>
		</layer>
		<layer id="175" name="Reshape_1071" type="Convert" version="opset1">
			<data destination_type="f32" />
			<rt_info>
				<attribute name="decompression" version="0" />
			</rt_info>
			<input>
				<port id="0" precision="FP16">
					<dim>1</dim>
					<dim>128</dim>
					<dim>1</dim>
					<dim>1</dim>
				</port>
			</input>
			<output>
				<port id="1" precision="FP32">
					<dim>1</dim>
					<dim>128</dim>
					<dim>1</dim>
					<dim>1</dim>
				</port>
			</output>
		</layer>
		<layer id="176" name="/model.4/cv1/conv/Conv" type="Add" version="opset1">
			<data auto_broadcast="numpy" />
			<input>
				<port id="0" precision="FP32">
					<dim>1</dim>
					<dim>128</dim>
					<dim>80</dim>
					<dim>80</dim>
				</port>
				<port id="1" precision="FP32">
					<dim>1</dim>
					<dim>128</dim>
					<dim>1</dim>
					<dim>1</dim>
				</port>
			</input>
			<output>
				<port id="2" precision="FP32" names="/model.4/cv1/conv/Conv_output_0">
					<dim>1</dim>
					<dim>128</dim>
					<dim>80</dim>
					<dim>80</dim>
				</port>
			</output>
		</layer>
		<layer id="177" name="/model.4/cv1/act/Mul" type="Swish" version="opset4">
			<input>
				<port id="0" precision="FP32">
					<dim>1</dim>
					<dim>128</dim>
					<dim>80</dim>
					<dim>80</dim>
				</port>
			</input>
			<output>
				<port id="1" precision="FP32" names="/model.4/cv1/act/Mul_output_0">
					<dim>1</dim>
					<dim>128</dim>
					<dim>80</dim>
					<dim>80</dim>
				</port>
			</output>
		</layer>
		<layer id="178" name="Constant_18459" type="Const" version="opset1">
			<data element_type="i64" shape="2" offset="184320" size="16" />
			<rt_info>
				<attribute name="precise" version="0" />
			</rt_info>
			<output>
				<port id="0" precision="I64">
					<dim>2</dim>
				</port>
			</output>
		</layer>
		<layer id="179" name="Constant_18456" type="Const" version="opset1">
			<data element_type="i64" shape="1" offset="184336" size="8" />
			<rt_info>
				<attribute name="precise" version="0" />
			</rt_info>
			<output>
				<port id="0" precision="I64">
					<dim>1</dim>
				</port>
			</output>
		</layer>
		<layer id="180" name="/model.4/Constant_5" type="Const" version="opset1">
			<data element_type="i64" shape="1" offset="184352" size="8" />
			<rt_info>
				<attribute name="precise" version="0" />
			</rt_info>
			<output>
				<port id="0" precision="I64" names="/model.4/Constant_5_output_0">
					<dim>1</dim>
				</port>
			</output>
		</layer>
		<layer id="181" name="/model.4/Mul_1" type="Multiply" version="opset1">
			<data auto_broadcast="numpy" />
			<input>
				<port id="0" precision="I64">
					<dim>1</dim>
				</port>
				<port id="1" precision="I64">
					<dim>1</dim>
				</port>
			</input>
			<output>
				<port id="2" precision="I64" names="/model.4/Mul_1_output_0">
					<dim>1</dim>
				</port>
			</output>
		</layer>
		<layer id="182" name="Constant_18455" type="Const" version="opset1">
			<data element_type="i32" shape="1" offset="184360" size="4" />
			<rt_info>
				<attribute name="precise" version="0" />
			</rt_info>
			<output>
				<port id="0" precision="I32">
					<dim>1</dim>
				</port>
			</output>
		</layer>
		<layer id="183" name="ScatterUpdate_18460" type="ScatterUpdate" version="opset3">
			<input>
				<port id="0" precision="I64">
					<dim>2</dim>
				</port>
				<port id="1" precision="I64">
					<dim>1</dim>
				</port>
				<port id="2" precision="I64">
					<dim>1</dim>
				</port>
				<port id="3" precision="I32">
					<dim>1</dim>
				</port>
			</input>
			<output>
				<port id="4" precision="I64">
					<dim>2</dim>
				</port>
			</output>
		</layer>
		<layer id="184" name="Constant_18463" type="Const" version="opset1">
			<data element_type="i64" shape="2" offset="184364" size="16" />
			<rt_info>
				<attribute name="precise" version="0" />
			</rt_info>
			<output>
				<port id="0" precision="I64">
					<dim>2</dim>
				</port>
			</output>
		</layer>
		<layer id="185" name="/model.4/Slice_1" type="StridedSlice" version="opset1">
			<data begin_mask="1, 0" end_mask="1, 0" new_axis_mask="" shrink_axis_mask="" ellipsis_mask="" />
			<input>
				<port id="0" precision="FP32">
					<dim>1</dim>
					<dim>256</dim>
					<dim>159</dim>
					<dim>159</dim>
				</port>
				<port id="1" precision="I64">
					<dim>2</dim>
				</port>
				<port id="2" precision="I64">
					<dim>2</dim>
				</port>
				<port id="3" precision="I64">
					<dim>2</dim>
				</port>
			</input>
			<output>
				<port id="4" precision="FP32" names="/model.4/Slice_1_output_0">
					<dim>1</dim>
					<dim>128</dim>
					<dim>159</dim>
					<dim>159</dim>
				</port>
			</output>
		</layer>
		<layer id="186" name="/model.4/MaxPool" type="MaxPool" version="opset8">
			<data strides="2, 2" dilations="1, 1" pads_begin="1, 1" pads_end="1, 1" kernel="3, 3" rounding_type="floor" auto_pad="explicit" index_element_type="i64" axis="0" />
			<input>
				<port id="0" precision="FP32">
					<dim>1</dim>
					<dim>128</dim>
					<dim>159</dim>
					<dim>159</dim>
				</port>
			</input>
			<output>
				<port id="1" precision="FP32" names="/model.4/MaxPool_output_0">
					<dim>1</dim>
					<dim>128</dim>
					<dim>80</dim>
					<dim>80</dim>
				</port>
				<port id="2" precision="I64">
					<dim>1</dim>
					<dim>128</dim>
					<dim>80</dim>
					<dim>80</dim>
				</port>
			</output>
		</layer>
		<layer id="187" name="model.4.cv2.conv.weight_compressed" type="Const" version="opset1">
			<data element_type="f16" shape="128, 128, 1, 1" offset="870332" size="32768" />
			<output>
				<port id="0" precision="FP16">
					<dim>128</dim>
					<dim>128</dim>
					<dim>1</dim>
					<dim>1</dim>
				</port>
			</output>
		</layer>
		<layer id="188" name="model.4.cv2.conv.weight" type="Convert" version="opset1">
			<data destination_type="f32" />
			<rt_info>
				<attribute name="decompression" version="0" />
			</rt_info>
			<input>
				<port id="0" precision="FP16">
					<dim>128</dim>
					<dim>128</dim>
					<dim>1</dim>
					<dim>1</dim>
				</port>
			</input>
			<output>
				<port id="1" precision="FP32" names="model.4.cv2.conv.weight">
					<dim>128</dim>
					<dim>128</dim>
					<dim>1</dim>
					<dim>1</dim>
				</port>
			</output>
		</layer>
		<layer id="189" name="/model.4/cv2/conv/Conv/WithoutBiases" type="Convolution" version="opset1">
			<data strides="1, 1" dilations="1, 1" pads_begin="0, 0" pads_end="0, 0" auto_pad="explicit" />
			<input>
				<port id="0" precision="FP32">
					<dim>1</dim>
					<dim>128</dim>
					<dim>80</dim>
					<dim>80</dim>
				</port>
				<port id="1" precision="FP32">
					<dim>128</dim>
					<dim>128</dim>
					<dim>1</dim>
					<dim>1</dim>
				</port>
			</input>
			<output>
				<port id="2" precision="FP32">
					<dim>1</dim>
					<dim>128</dim>
					<dim>80</dim>
					<dim>80</dim>
				</port>
			</output>
		</layer>
		<layer id="190" name="Reshape_1090_compressed" type="Const" version="opset1">
			<data element_type="f16" shape="1, 128, 1, 1" offset="903100" size="256" />
			<output>
				<port id="0" precision="FP16">
					<dim>1</dim>
					<dim>128</dim>
					<dim>1</dim>
					<dim>1</dim>
				</port>
			</output>
		</layer>
		<layer id="191" name="Reshape_1090" type="Convert" version="opset1">
			<data destination_type="f32" />
			<rt_info>
				<attribute name="decompression" version="0" />
			</rt_info>
			<input>
				<port id="0" precision="FP16">
					<dim>1</dim>
					<dim>128</dim>
					<dim>1</dim>
					<dim>1</dim>
				</port>
			</input>
			<output>
				<port id="1" precision="FP32">
					<dim>1</dim>
					<dim>128</dim>
					<dim>1</dim>
					<dim>1</dim>
				</port>
			</output>
		</layer>
		<layer id="192" name="/model.4/cv2/conv/Conv" type="Add" version="opset1">
			<data auto_broadcast="numpy" />
			<input>
				<port id="0" precision="FP32">
					<dim>1</dim>
					<dim>128</dim>
					<dim>80</dim>
					<dim>80</dim>
				</port>
				<port id="1" precision="FP32">
					<dim>1</dim>
					<dim>128</dim>
					<dim>1</dim>
					<dim>1</dim>
				</port>
			</input>
			<output>
				<port id="2" precision="FP32" names="/model.4/cv2/conv/Conv_output_0">
					<dim>1</dim>
					<dim>128</dim>
					<dim>80</dim>
					<dim>80</dim>
				</port>
			</output>
		</layer>
		<layer id="193" name="/model.4/cv2/act/Mul" type="Swish" version="opset4">
			<input>
				<port id="0" precision="FP32">
					<dim>1</dim>
					<dim>128</dim>
					<dim>80</dim>
					<dim>80</dim>
				</port>
			</input>
			<output>
				<port id="1" precision="FP32" names="/model.4/cv2/act/Mul_output_0">
					<dim>1</dim>
					<dim>128</dim>
					<dim>80</dim>
					<dim>80</dim>
				</port>
			</output>
		</layer>
		<layer id="194" name="/model.4/Concat" type="Concat" version="opset1">
			<data axis="1" />
			<input>
				<port id="0" precision="FP32">
					<dim>1</dim>
					<dim>128</dim>
					<dim>80</dim>
					<dim>80</dim>
				</port>
				<port id="1" precision="FP32">
					<dim>1</dim>
					<dim>128</dim>
					<dim>80</dim>
					<dim>80</dim>
				</port>
			</input>
			<output>
				<port id="2" precision="FP32" names="/model.4/Concat_output_0">
					<dim>1</dim>
					<dim>256</dim>
					<dim>80</dim>
					<dim>80</dim>
				</port>
			</output>
		</layer>
		<layer id="195" name="model.5.cv1.conv.weight_compressed" type="Const" version="opset1">
			<data element_type="f16" shape="256, 256, 1, 1" offset="903356" size="131072" />
			<output>
				<port id="0" precision="FP16">
					<dim>256</dim>
					<dim>256</dim>
					<dim>1</dim>
					<dim>1</dim>
				</port>
			</output>
		</layer>
		<layer id="196" name="model.5.cv1.conv.weight" type="Convert" version="opset1">
			<data destination_type="f32" />
			<rt_info>
				<attribute name="decompression" version="0" />
			</rt_info>
			<input>
				<port id="0" precision="FP16">
					<dim>256</dim>
					<dim>256</dim>
					<dim>1</dim>
					<dim>1</dim>
				</port>
			</input>
			<output>
				<port id="1" precision="FP32" names="model.5.cv1.conv.weight">
					<dim>256</dim>
					<dim>256</dim>
					<dim>1</dim>
					<dim>1</dim>
				</port>
			</output>
		</layer>
		<layer id="197" name="/model.5/cv1/conv/Conv/WithoutBiases" type="Convolution" version="opset1">
			<data strides="1, 1" dilations="1, 1" pads_begin="0, 0" pads_end="0, 0" auto_pad="explicit" />
			<input>
				<port id="0" precision="FP32">
					<dim>1</dim>
					<dim>256</dim>
					<dim>80</dim>
					<dim>80</dim>
				</port>
				<port id="1" precision="FP32">
					<dim>256</dim>
					<dim>256</dim>
					<dim>1</dim>
					<dim>1</dim>
				</port>
			</input>
			<output>
				<port id="2" precision="FP32">
					<dim>1</dim>
					<dim>256</dim>
					<dim>80</dim>
					<dim>80</dim>
				</port>
			</output>
		</layer>
		<layer id="198" name="Reshape_1109_compressed" type="Const" version="opset1">
			<data element_type="f16" shape="1, 256, 1, 1" offset="1034428" size="512" />
			<output>
				<port id="0" precision="FP16">
					<dim>1</dim>
					<dim>256</dim>
					<dim>1</dim>
					<dim>1</dim>
				</port>
			</output>
		</layer>
		<layer id="199" name="Reshape_1109" type="Convert" version="opset1">
			<data destination_type="f32" />
			<rt_info>
				<attribute name="decompression" version="0" />
			</rt_info>
			<input>
				<port id="0" precision="FP16">
					<dim>1</dim>
					<dim>256</dim>
					<dim>1</dim>
					<dim>1</dim>
				</port>
			</input>
			<output>
				<port id="1" precision="FP32">
					<dim>1</dim>
					<dim>256</dim>
					<dim>1</dim>
					<dim>1</dim>
				</port>
			</output>
		</layer>
		<layer id="200" name="/model.5/cv1/conv/Conv" type="Add" version="opset1">
			<data auto_broadcast="numpy" />
			<input>
				<port id="0" precision="FP32">
					<dim>1</dim>
					<dim>256</dim>
					<dim>80</dim>
					<dim>80</dim>
				</port>
				<port id="1" precision="FP32">
					<dim>1</dim>
					<dim>256</dim>
					<dim>1</dim>
					<dim>1</dim>
				</port>
			</input>
			<output>
				<port id="2" precision="FP32" names="/model.5/cv1/conv/Conv_output_0">
					<dim>1</dim>
					<dim>256</dim>
					<dim>80</dim>
					<dim>80</dim>
				</port>
			</output>
		</layer>
		<layer id="201" name="/model.5/cv1/act/Mul" type="Swish" version="opset4">
			<input>
				<port id="0" precision="FP32">
					<dim>1</dim>
					<dim>256</dim>
					<dim>80</dim>
					<dim>80</dim>
				</port>
			</input>
			<output>
				<port id="1" precision="FP32" names="/model.5/cv1/act/Mul_output_0">
					<dim>1</dim>
					<dim>256</dim>
					<dim>80</dim>
					<dim>80</dim>
				</port>
			</output>
		</layer>
		<layer id="202" name="Constant_18547" type="Const" version="opset1">
			<data element_type="i64" shape="2" offset="184320" size="16" />
			<rt_info>
				<attribute name="precise" version="0" />
			</rt_info>
			<output>
				<port id="0" precision="I64">
					<dim>2</dim>
				</port>
			</output>
		</layer>
		<layer id="203" name="Constant_18548" type="Const" version="opset1">
			<data element_type="i64" shape="2" offset="184320" size="16" />
			<rt_info>
				<attribute name="precise" version="0" />
			</rt_info>
			<output>
				<port id="0" precision="I64">
					<dim>2</dim>
				</port>
			</output>
		</layer>
		<layer id="204" name="Constant_18544" type="Const" version="opset1">
			<data element_type="i64" shape="1" offset="184336" size="8" />
			<rt_info>
				<attribute name="precise" version="0" />
			</rt_info>
			<output>
				<port id="0" precision="I64">
					<dim>1</dim>
				</port>
			</output>
		</layer>
		<layer id="205" name="/model.5/Shape" type="ShapeOf" version="opset3">
			<data output_type="i64" />
			<input>
				<port id="0" precision="FP32">
					<dim>1</dim>
					<dim>256</dim>
					<dim>80</dim>
					<dim>80</dim>
				</port>
			</input>
			<output>
				<port id="1" precision="I64" names="/model.5/Shape_output_0">
					<dim>4</dim>
				</port>
			</output>
		</layer>
		<layer id="206" name="/model.5/Constant" type="Const" version="opset1">
			<data element_type="i64" shape="1" offset="184336" size="8" />
			<rt_info>
				<attribute name="precise" version="0" />
			</rt_info>
			<output>
				<port id="0" precision="I64" names="/model.5/Constant_output_0">
					<dim>1</dim>
				</port>
			</output>
		</layer>
		<layer id="207" name="Constant_1117" type="Const" version="opset1">
			<data element_type="i64" shape="" offset="184344" size="8" />
			<rt_info>
				<attribute name="precise" version="0" />
			</rt_info>
			<output>
				<port id="0" precision="I64" />
			</output>
		</layer>
		<layer id="208" name="/model.5/Gather" type="Gather" version="opset8">
			<data batch_dims="0" />
			<input>
				<port id="0" precision="I64">
					<dim>4</dim>
				</port>
				<port id="1" precision="I64">
					<dim>1</dim>
				</port>
				<port id="2" precision="I64" />
			</input>
			<output>
				<port id="3" precision="I64" names="/model.5/Gather_output_0">
					<dim>1</dim>
				</port>
			</output>
		</layer>
		<layer id="209" name="/model.5/Constant_2" type="Const" version="opset1">
			<data element_type="i64" shape="1" offset="184336" size="8" />
			<rt_info>
				<attribute name="precise" version="0" />
			</rt_info>
			<output>
				<port id="0" precision="I64" names="/model.5/Constant_2_output_0">
					<dim>1</dim>
				</port>
			</output>
		</layer>
		<layer id="210" name="/model.5/Add" type="Add" version="opset1">
			<data auto_broadcast="numpy" />
			<input>
				<port id="0" precision="I64">
					<dim>1</dim>
				</port>
				<port id="1" precision="I64">
					<dim>1</dim>
				</port>
			</input>
			<output>
				<port id="2" precision="I64" names="/model.5/Add_output_0">
					<dim>1</dim>
				</port>
			</output>
		</layer>
		<layer id="211" name="/model.5/Constant_3" type="Const" version="opset1">
			<data element_type="i64" shape="1" offset="184352" size="8" />
			<rt_info>
				<attribute name="precise" version="0" />
			</rt_info>
			<output>
				<port id="0" precision="I64" names="/model.5/Constant_3_output_0">
					<dim>1</dim>
				</port>
			</output>
		</layer>
		<layer id="212" name="/model.5/Div" type="Divide" version="opset1">
			<data auto_broadcast="numpy" m_pythondiv="true" />
			<input>
				<port id="0" precision="I64">
					<dim>1</dim>
				</port>
				<port id="1" precision="I64">
					<dim>1</dim>
				</port>
			</input>
			<output>
				<port id="2" precision="I64" names="/model.5/Div_output_0,/model.5/Mul_output_0">
					<dim>1</dim>
				</port>
			</output>
		</layer>
		<layer id="213" name="Constant_18543" type="Const" version="opset1">
			<data element_type="i32" shape="1" offset="184360" size="4" />
			<rt_info>
				<attribute name="precise" version="0" />
			</rt_info>
			<output>
				<port id="0" precision="I32">
					<dim>1</dim>
				</port>
			</output>
		</layer>
		<layer id="214" name="ScatterUpdate_18549" type="ScatterUpdate" version="opset3">
			<input>
				<port id="0" precision="I64">
					<dim>2</dim>
				</port>
				<port id="1" precision="I64">
					<dim>1</dim>
				</port>
				<port id="2" precision="I64">
					<dim>1</dim>
				</port>
				<port id="3" precision="I32">
					<dim>1</dim>
				</port>
			</input>
			<output>
				<port id="4" precision="I64">
					<dim>2</dim>
				</port>
			</output>
		</layer>
		<layer id="215" name="Constant_18552" type="Const" version="opset1">
			<data element_type="i64" shape="2" offset="184364" size="16" />
			<rt_info>
				<attribute name="precise" version="0" />
			</rt_info>
			<output>
				<port id="0" precision="I64">
					<dim>2</dim>
				</port>
			</output>
		</layer>
		<layer id="216" name="/model.5/Slice" type="StridedSlice" version="opset1">
			<data begin_mask="1, 0" end_mask="1, 0" new_axis_mask="" shrink_axis_mask="" ellipsis_mask="" />
			<input>
				<port id="0" precision="FP32">
					<dim>1</dim>
					<dim>256</dim>
					<dim>80</dim>
					<dim>80</dim>
				</port>
				<port id="1" precision="I64">
					<dim>2</dim>
				</port>
				<port id="2" precision="I64">
					<dim>2</dim>
				</port>
				<port id="3" precision="I64">
					<dim>2</dim>
				</port>
			</input>
			<output>
				<port id="4" precision="FP32" names="/model.5/Slice_output_0">
					<dim>1</dim>
					<dim>128</dim>
					<dim>80</dim>
					<dim>80</dim>
				</port>
			</output>
		</layer>
		<layer id="217" name="Constant_18597" type="Const" version="opset1">
			<data element_type="i64" shape="2" offset="184320" size="16" />
			<rt_info>
				<attribute name="precise" version="0" />
			</rt_info>
			<output>
				<port id="0" precision="I64">
					<dim>2</dim>
				</port>
			</output>
		</layer>
		<layer id="218" name="Constant_18594" type="Const" version="opset1">
			<data element_type="i64" shape="1" offset="184336" size="8" />
			<rt_info>
				<attribute name="precise" version="0" />
			</rt_info>
			<output>
				<port id="0" precision="I64">
					<dim>1</dim>
				</port>
			</output>
		</layer>
		<layer id="219" name="/model.5/Constant_5" type="Const" version="opset1">
			<data element_type="i64" shape="1" offset="184352" size="8" />
			<rt_info>
				<attribute name="precise" version="0" />
			</rt_info>
			<output>
				<port id="0" precision="I64" names="/model.5/Constant_5_output_0">
					<dim>1</dim>
				</port>
			</output>
		</layer>
		<layer id="220" name="/model.5/Mul_1" type="Multiply" version="opset1">
			<data auto_broadcast="numpy" />
			<input>
				<port id="0" precision="I64">
					<dim>1</dim>
				</port>
				<port id="1" precision="I64">
					<dim>1</dim>
				</port>
			</input>
			<output>
				<port id="2" precision="I64" names="/model.5/Mul_1_output_0">
					<dim>1</dim>
				</port>
			</output>
		</layer>
		<layer id="221" name="Constant_18593" type="Const" version="opset1">
			<data element_type="i32" shape="1" offset="184360" size="4" />
			<rt_info>
				<attribute name="precise" version="0" />
			</rt_info>
			<output>
				<port id="0" precision="I32">
					<dim>1</dim>
				</port>
			</output>
		</layer>
		<layer id="222" name="ScatterUpdate_18598" type="ScatterUpdate" version="opset3">
			<input>
				<port id="0" precision="I64">
					<dim>2</dim>
				</port>
				<port id="1" precision="I64">
					<dim>1</dim>
				</port>
				<port id="2" precision="I64">
					<dim>1</dim>
				</port>
				<port id="3" precision="I32">
					<dim>1</dim>
				</port>
			</input>
			<output>
				<port id="4" precision="I64">
					<dim>2</dim>
				</port>
			</output>
		</layer>
		<layer id="223" name="Constant_18601" type="Const" version="opset1">
			<data element_type="i64" shape="2" offset="184364" size="16" />
			<rt_info>
				<attribute name="precise" version="0" />
			</rt_info>
			<output>
				<port id="0" precision="I64">
					<dim>2</dim>
				</port>
			</output>
		</layer>
		<layer id="224" name="/model.5/Slice_1" type="StridedSlice" version="opset1">
			<data begin_mask="1, 0" end_mask="1, 0" new_axis_mask="" shrink_axis_mask="" ellipsis_mask="" />
			<input>
				<port id="0" precision="FP32">
					<dim>1</dim>
					<dim>256</dim>
					<dim>80</dim>
					<dim>80</dim>
				</port>
				<port id="1" precision="I64">
					<dim>2</dim>
				</port>
				<port id="2" precision="I64">
					<dim>2</dim>
				</port>
				<port id="3" precision="I64">
					<dim>2</dim>
				</port>
			</input>
			<output>
				<port id="4" precision="FP32" names="/model.5/Slice_1_output_0">
					<dim>1</dim>
					<dim>128</dim>
					<dim>80</dim>
					<dim>80</dim>
				</port>
			</output>
		</layer>
		<layer id="225" name="model.5.cv2.0.cv1.conv.weight_compressed" type="Const" version="opset1">
			<data element_type="f16" shape="64, 128, 1, 1" offset="1034940" size="16384" />
			<output>
				<port id="0" precision="FP16">
					<dim>64</dim>
					<dim>128</dim>
					<dim>1</dim>
					<dim>1</dim>
				</port>
			</output>
		</layer>
		<layer id="226" name="model.5.cv2.0.cv1.conv.weight" type="Convert" version="opset1">
			<data destination_type="f32" />
			<rt_info>
				<attribute name="decompression" version="0" />
			</rt_info>
			<input>
				<port id="0" precision="FP16">
					<dim>64</dim>
					<dim>128</dim>
					<dim>1</dim>
					<dim>1</dim>
				</port>
			</input>
			<output>
				<port id="1" precision="FP32" names="model.5.cv2.0.cv1.conv.weight">
					<dim>64</dim>
					<dim>128</dim>
					<dim>1</dim>
					<dim>1</dim>
				</port>
			</output>
		</layer>
		<layer id="227" name="/model.5/cv2/cv2.0/cv1/conv/Conv/WithoutBiases" type="Convolution" version="opset1">
			<data strides="1, 1" dilations="1, 1" pads_begin="0, 0" pads_end="0, 0" auto_pad="explicit" />
			<input>
				<port id="0" precision="FP32">
					<dim>1</dim>
					<dim>128</dim>
					<dim>80</dim>
					<dim>80</dim>
				</port>
				<port id="1" precision="FP32">
					<dim>64</dim>
					<dim>128</dim>
					<dim>1</dim>
					<dim>1</dim>
				</port>
			</input>
			<output>
				<port id="2" precision="FP32">
					<dim>1</dim>
					<dim>64</dim>
					<dim>80</dim>
					<dim>80</dim>
				</port>
			</output>
		</layer>
		<layer id="228" name="Reshape_1236_compressed" type="Const" version="opset1">
			<data element_type="f16" shape="1, 64, 1, 1" offset="1051324" size="128" />
			<output>
				<port id="0" precision="FP16">
					<dim>1</dim>
					<dim>64</dim>
					<dim>1</dim>
					<dim>1</dim>
				</port>
			</output>
		</layer>
		<layer id="229" name="Reshape_1236" type="Convert" version="opset1">
			<data destination_type="f32" />
			<rt_info>
				<attribute name="decompression" version="0" />
			</rt_info>
			<input>
				<port id="0" precision="FP16">
					<dim>1</dim>
					<dim>64</dim>
					<dim>1</dim>
					<dim>1</dim>
				</port>
			</input>
			<output>
				<port id="1" precision="FP32">
					<dim>1</dim>
					<dim>64</dim>
					<dim>1</dim>
					<dim>1</dim>
				</port>
			</output>
		</layer>
		<layer id="230" name="/model.5/cv2/cv2.0/cv1/conv/Conv" type="Add" version="opset1">
			<data auto_broadcast="numpy" />
			<input>
				<port id="0" precision="FP32">
					<dim>1</dim>
					<dim>64</dim>
					<dim>80</dim>
					<dim>80</dim>
				</port>
				<port id="1" precision="FP32">
					<dim>1</dim>
					<dim>64</dim>
					<dim>1</dim>
					<dim>1</dim>
				</port>
			</input>
			<output>
				<port id="2" precision="FP32" names="/model.5/cv2/cv2.0/cv1/conv/Conv_output_0">
					<dim>1</dim>
					<dim>64</dim>
					<dim>80</dim>
					<dim>80</dim>
				</port>
			</output>
		</layer>
		<layer id="231" name="/model.5/cv2/cv2.0/cv1/act/Mul" type="Swish" version="opset4">
			<input>
				<port id="0" precision="FP32">
					<dim>1</dim>
					<dim>64</dim>
					<dim>80</dim>
					<dim>80</dim>
				</port>
			</input>
			<output>
				<port id="1" precision="FP32" names="/model.5/cv2/cv2.0/cv1/act/Mul_output_0">
					<dim>1</dim>
					<dim>64</dim>
					<dim>80</dim>
					<dim>80</dim>
				</port>
			</output>
		</layer>
		<layer id="232" name="model.5.cv2.0.m.0.cv1.conv1.conv.weight_compressed" type="Const" version="opset1">
			<data element_type="f16" shape="64, 64, 3, 3" offset="1051452" size="73728" />
			<output>
				<port id="0" precision="FP16">
					<dim>64</dim>
					<dim>64</dim>
					<dim>3</dim>
					<dim>3</dim>
				</port>
			</output>
		</layer>
		<layer id="233" name="model.5.cv2.0.m.0.cv1.conv1.conv.weight" type="Convert" version="opset1">
			<data destination_type="f32" />
			<rt_info>
				<attribute name="decompression" version="0" />
			</rt_info>
			<input>
				<port id="0" precision="FP16">
					<dim>64</dim>
					<dim>64</dim>
					<dim>3</dim>
					<dim>3</dim>
				</port>
			</input>
			<output>
				<port id="1" precision="FP32" names="model.5.cv2.0.m.0.cv1.conv1.conv.weight">
					<dim>64</dim>
					<dim>64</dim>
					<dim>3</dim>
					<dim>3</dim>
				</port>
			</output>
		</layer>
		<layer id="234" name="/model.5/cv2/cv2.0/m/m.0/cv1/conv1/conv/Conv/WithoutBiases" type="Convolution" version="opset1">
			<data strides="1, 1" dilations="1, 1" pads_begin="1, 1" pads_end="1, 1" auto_pad="explicit" />
			<input>
				<port id="0" precision="FP32">
					<dim>1</dim>
					<dim>64</dim>
					<dim>80</dim>
					<dim>80</dim>
				</port>
				<port id="1" precision="FP32">
					<dim>64</dim>
					<dim>64</dim>
					<dim>3</dim>
					<dim>3</dim>
				</port>
			</input>
			<output>
				<port id="2" precision="FP32">
					<dim>1</dim>
					<dim>64</dim>
					<dim>80</dim>
					<dim>80</dim>
				</port>
			</output>
		</layer>
		<layer id="235" name="Reshape_1254_compressed" type="Const" version="opset1">
			<data element_type="f16" shape="1, 64, 1, 1" offset="1125180" size="128" />
			<output>
				<port id="0" precision="FP16">
					<dim>1</dim>
					<dim>64</dim>
					<dim>1</dim>
					<dim>1</dim>
				</port>
			</output>
		</layer>
		<layer id="236" name="Reshape_1254" type="Convert" version="opset1">
			<data destination_type="f32" />
			<rt_info>
				<attribute name="decompression" version="0" />
			</rt_info>
			<input>
				<port id="0" precision="FP16">
					<dim>1</dim>
					<dim>64</dim>
					<dim>1</dim>
					<dim>1</dim>
				</port>
			</input>
			<output>
				<port id="1" precision="FP32">
					<dim>1</dim>
					<dim>64</dim>
					<dim>1</dim>
					<dim>1</dim>
				</port>
			</output>
		</layer>
		<layer id="237" name="/model.5/cv2/cv2.0/m/m.0/cv1/conv1/conv/Conv" type="Add" version="opset1">
			<data auto_broadcast="numpy" />
			<input>
				<port id="0" precision="FP32">
					<dim>1</dim>
					<dim>64</dim>
					<dim>80</dim>
					<dim>80</dim>
				</port>
				<port id="1" precision="FP32">
					<dim>1</dim>
					<dim>64</dim>
					<dim>1</dim>
					<dim>1</dim>
				</port>
			</input>
			<output>
				<port id="2" precision="FP32" names="/model.5/cv2/cv2.0/m/m.0/cv1/conv1/conv/Conv_output_0">
					<dim>1</dim>
					<dim>64</dim>
					<dim>80</dim>
					<dim>80</dim>
				</port>
			</output>
		</layer>
		<layer id="238" name="model.5.cv2.0.m.0.cv1.conv2.conv.weight_compressed" type="Const" version="opset1">
			<data element_type="f16" shape="64, 64, 1, 1" offset="1125308" size="8192" />
			<output>
				<port id="0" precision="FP16">
					<dim>64</dim>
					<dim>64</dim>
					<dim>1</dim>
					<dim>1</dim>
				</port>
			</output>
		</layer>
		<layer id="239" name="model.5.cv2.0.m.0.cv1.conv2.conv.weight" type="Convert" version="opset1">
			<data destination_type="f32" />
			<rt_info>
				<attribute name="decompression" version="0" />
			</rt_info>
			<input>
				<port id="0" precision="FP16">
					<dim>64</dim>
					<dim>64</dim>
					<dim>1</dim>
					<dim>1</dim>
				</port>
			</input>
			<output>
				<port id="1" precision="FP32" names="model.5.cv2.0.m.0.cv1.conv2.conv.weight">
					<dim>64</dim>
					<dim>64</dim>
					<dim>1</dim>
					<dim>1</dim>
				</port>
			</output>
		</layer>
		<layer id="240" name="/model.5/cv2/cv2.0/m/m.0/cv1/conv2/conv/Conv/WithoutBiases" type="Convolution" version="opset1">
			<data strides="1, 1" dilations="1, 1" pads_begin="0, 0" pads_end="0, 0" auto_pad="explicit" />
			<input>
				<port id="0" precision="FP32">
					<dim>1</dim>
					<dim>64</dim>
					<dim>80</dim>
					<dim>80</dim>
				</port>
				<port id="1" precision="FP32">
					<dim>64</dim>
					<dim>64</dim>
					<dim>1</dim>
					<dim>1</dim>
				</port>
			</input>
			<output>
				<port id="2" precision="FP32">
					<dim>1</dim>
					<dim>64</dim>
					<dim>80</dim>
					<dim>80</dim>
				</port>
			</output>
		</layer>
		<layer id="241" name="Reshape_1270_compressed" type="Const" version="opset1">
			<data element_type="f16" shape="1, 64, 1, 1" offset="1133500" size="128" />
			<output>
				<port id="0" precision="FP16">
					<dim>1</dim>
					<dim>64</dim>
					<dim>1</dim>
					<dim>1</dim>
				</port>
			</output>
		</layer>
		<layer id="242" name="Reshape_1270" type="Convert" version="opset1">
			<data destination_type="f32" />
			<rt_info>
				<attribute name="decompression" version="0" />
			</rt_info>
			<input>
				<port id="0" precision="FP16">
					<dim>1</dim>
					<dim>64</dim>
					<dim>1</dim>
					<dim>1</dim>
				</port>
			</input>
			<output>
				<port id="1" precision="FP32">
					<dim>1</dim>
					<dim>64</dim>
					<dim>1</dim>
					<dim>1</dim>
				</port>
			</output>
		</layer>
		<layer id="243" name="/model.5/cv2/cv2.0/m/m.0/cv1/conv2/conv/Conv" type="Add" version="opset1">
			<data auto_broadcast="numpy" />
			<input>
				<port id="0" precision="FP32">
					<dim>1</dim>
					<dim>64</dim>
					<dim>80</dim>
					<dim>80</dim>
				</port>
				<port id="1" precision="FP32">
					<dim>1</dim>
					<dim>64</dim>
					<dim>1</dim>
					<dim>1</dim>
				</port>
			</input>
			<output>
				<port id="2" precision="FP32" names="/model.5/cv2/cv2.0/m/m.0/cv1/conv2/conv/Conv_output_0">
					<dim>1</dim>
					<dim>64</dim>
					<dim>80</dim>
					<dim>80</dim>
				</port>
			</output>
		</layer>
		<layer id="244" name="/model.5/cv2/cv2.0/m/m.0/cv1/Add" type="Add" version="opset1">
			<data auto_broadcast="numpy" />
			<input>
				<port id="0" precision="FP32">
					<dim>1</dim>
					<dim>64</dim>
					<dim>80</dim>
					<dim>80</dim>
				</port>
				<port id="1" precision="FP32">
					<dim>1</dim>
					<dim>64</dim>
					<dim>80</dim>
					<dim>80</dim>
				</port>
			</input>
			<output>
				<port id="2" precision="FP32" names="/model.5/cv2/cv2.0/m/m.0/cv1/Add_1_output_0,/model.5/cv2/cv2.0/m/m.0/cv1/Add_output_0">
					<dim>1</dim>
					<dim>64</dim>
					<dim>80</dim>
					<dim>80</dim>
				</port>
			</output>
		</layer>
		<layer id="245" name="/model.5/cv2/cv2.0/m/m.0/cv1/act/Mul" type="Swish" version="opset4">
			<input>
				<port id="0" precision="FP32">
					<dim>1</dim>
					<dim>64</dim>
					<dim>80</dim>
					<dim>80</dim>
				</port>
			</input>
			<output>
				<port id="1" precision="FP32" names="/model.5/cv2/cv2.0/m/m.0/cv1/act/Mul_output_0">
					<dim>1</dim>
					<dim>64</dim>
					<dim>80</dim>
					<dim>80</dim>
				</port>
			</output>
		</layer>
		<layer id="246" name="model.5.cv2.0.m.0.cv2.conv.weight_compressed" type="Const" version="opset1">
			<data element_type="f16" shape="64, 64, 3, 3" offset="1133628" size="73728" />
			<output>
				<port id="0" precision="FP16">
					<dim>64</dim>
					<dim>64</dim>
					<dim>3</dim>
					<dim>3</dim>
				</port>
			</output>
		</layer>
		<layer id="247" name="model.5.cv2.0.m.0.cv2.conv.weight" type="Convert" version="opset1">
			<data destination_type="f32" />
			<rt_info>
				<attribute name="decompression" version="0" />
			</rt_info>
			<input>
				<port id="0" precision="FP16">
					<dim>64</dim>
					<dim>64</dim>
					<dim>3</dim>
					<dim>3</dim>
				</port>
			</input>
			<output>
				<port id="1" precision="FP32" names="model.5.cv2.0.m.0.cv2.conv.weight">
					<dim>64</dim>
					<dim>64</dim>
					<dim>3</dim>
					<dim>3</dim>
				</port>
			</output>
		</layer>
		<layer id="248" name="/model.5/cv2/cv2.0/m/m.0/cv2/conv/Conv/WithoutBiases" type="Convolution" version="opset1">
			<data strides="1, 1" dilations="1, 1" pads_begin="1, 1" pads_end="1, 1" auto_pad="explicit" />
			<input>
				<port id="0" precision="FP32">
					<dim>1</dim>
					<dim>64</dim>
					<dim>80</dim>
					<dim>80</dim>
				</port>
				<port id="1" precision="FP32">
					<dim>64</dim>
					<dim>64</dim>
					<dim>3</dim>
					<dim>3</dim>
				</port>
			</input>
			<output>
				<port id="2" precision="FP32">
					<dim>1</dim>
					<dim>64</dim>
					<dim>80</dim>
					<dim>80</dim>
				</port>
			</output>
		</layer>
		<layer id="249" name="Reshape_1291_compressed" type="Const" version="opset1">
			<data element_type="f16" shape="1, 64, 1, 1" offset="1207356" size="128" />
			<output>
				<port id="0" precision="FP16">
					<dim>1</dim>
					<dim>64</dim>
					<dim>1</dim>
					<dim>1</dim>
				</port>
			</output>
		</layer>
		<layer id="250" name="Reshape_1291" type="Convert" version="opset1">
			<data destination_type="f32" />
			<rt_info>
				<attribute name="decompression" version="0" />
			</rt_info>
			<input>
				<port id="0" precision="FP16">
					<dim>1</dim>
					<dim>64</dim>
					<dim>1</dim>
					<dim>1</dim>
				</port>
			</input>
			<output>
				<port id="1" precision="FP32">
					<dim>1</dim>
					<dim>64</dim>
					<dim>1</dim>
					<dim>1</dim>
				</port>
			</output>
		</layer>
		<layer id="251" name="/model.5/cv2/cv2.0/m/m.0/cv2/conv/Conv" type="Add" version="opset1">
			<data auto_broadcast="numpy" />
			<input>
				<port id="0" precision="FP32">
					<dim>1</dim>
					<dim>64</dim>
					<dim>80</dim>
					<dim>80</dim>
				</port>
				<port id="1" precision="FP32">
					<dim>1</dim>
					<dim>64</dim>
					<dim>1</dim>
					<dim>1</dim>
				</port>
			</input>
			<output>
				<port id="2" precision="FP32" names="/model.5/cv2/cv2.0/m/m.0/cv2/conv/Conv_output_0">
					<dim>1</dim>
					<dim>64</dim>
					<dim>80</dim>
					<dim>80</dim>
				</port>
			</output>
		</layer>
		<layer id="252" name="/model.5/cv2/cv2.0/m/m.0/cv2/act/Mul" type="Swish" version="opset4">
			<input>
				<port id="0" precision="FP32">
					<dim>1</dim>
					<dim>64</dim>
					<dim>80</dim>
					<dim>80</dim>
				</port>
			</input>
			<output>
				<port id="1" precision="FP32" names="/model.5/cv2/cv2.0/m/m.0/cv2/act/Mul_output_0">
					<dim>1</dim>
					<dim>64</dim>
					<dim>80</dim>
					<dim>80</dim>
				</port>
			</output>
		</layer>
		<layer id="253" name="/model.5/cv2/cv2.0/m/m.0/Add" type="Add" version="opset1">
			<data auto_broadcast="numpy" />
			<input>
				<port id="0" precision="FP32">
					<dim>1</dim>
					<dim>64</dim>
					<dim>80</dim>
					<dim>80</dim>
				</port>
				<port id="1" precision="FP32">
					<dim>1</dim>
					<dim>64</dim>
					<dim>80</dim>
					<dim>80</dim>
				</port>
			</input>
			<output>
				<port id="2" precision="FP32" names="/model.5/cv2/cv2.0/m/m.0/Add_output_0">
					<dim>1</dim>
					<dim>64</dim>
					<dim>80</dim>
					<dim>80</dim>
				</port>
			</output>
		</layer>
		<layer id="254" name="model.5.cv2.0.cv2.conv.weight_compressed" type="Const" version="opset1">
			<data element_type="f16" shape="64, 128, 1, 1" offset="1207484" size="16384" />
			<output>
				<port id="0" precision="FP16">
					<dim>64</dim>
					<dim>128</dim>
					<dim>1</dim>
					<dim>1</dim>
				</port>
			</output>
		</layer>
		<layer id="255" name="model.5.cv2.0.cv2.conv.weight" type="Convert" version="opset1">
			<data destination_type="f32" />
			<rt_info>
				<attribute name="decompression" version="0" />
			</rt_info>
			<input>
				<port id="0" precision="FP16">
					<dim>64</dim>
					<dim>128</dim>
					<dim>1</dim>
					<dim>1</dim>
				</port>
			</input>
			<output>
				<port id="1" precision="FP32" names="model.5.cv2.0.cv2.conv.weight">
					<dim>64</dim>
					<dim>128</dim>
					<dim>1</dim>
					<dim>1</dim>
				</port>
			</output>
		</layer>
		<layer id="256" name="/model.5/cv2/cv2.0/cv2/conv/Conv/WithoutBiases" type="Convolution" version="opset1">
			<data strides="1, 1" dilations="1, 1" pads_begin="0, 0" pads_end="0, 0" auto_pad="explicit" />
			<input>
				<port id="0" precision="FP32">
					<dim>1</dim>
					<dim>128</dim>
					<dim>80</dim>
					<dim>80</dim>
				</port>
				<port id="1" precision="FP32">
					<dim>64</dim>
					<dim>128</dim>
					<dim>1</dim>
					<dim>1</dim>
				</port>
			</input>
			<output>
				<port id="2" precision="FP32">
					<dim>1</dim>
					<dim>64</dim>
					<dim>80</dim>
					<dim>80</dim>
				</port>
			</output>
		</layer>
		<layer id="257" name="Reshape_1310_compressed" type="Const" version="opset1">
			<data element_type="f16" shape="1, 64, 1, 1" offset="1223868" size="128" />
			<output>
				<port id="0" precision="FP16">
					<dim>1</dim>
					<dim>64</dim>
					<dim>1</dim>
					<dim>1</dim>
				</port>
			</output>
		</layer>
		<layer id="258" name="Reshape_1310" type="Convert" version="opset1">
			<data destination_type="f32" />
			<rt_info>
				<attribute name="decompression" version="0" />
			</rt_info>
			<input>
				<port id="0" precision="FP16">
					<dim>1</dim>
					<dim>64</dim>
					<dim>1</dim>
					<dim>1</dim>
				</port>
			</input>
			<output>
				<port id="1" precision="FP32">
					<dim>1</dim>
					<dim>64</dim>
					<dim>1</dim>
					<dim>1</dim>
				</port>
			</output>
		</layer>
		<layer id="259" name="/model.5/cv2/cv2.0/cv2/conv/Conv" type="Add" version="opset1">
			<data auto_broadcast="numpy" />
			<input>
				<port id="0" precision="FP32">
					<dim>1</dim>
					<dim>64</dim>
					<dim>80</dim>
					<dim>80</dim>
				</port>
				<port id="1" precision="FP32">
					<dim>1</dim>
					<dim>64</dim>
					<dim>1</dim>
					<dim>1</dim>
				</port>
			</input>
			<output>
				<port id="2" precision="FP32" names="/model.5/cv2/cv2.0/cv2/conv/Conv_output_0">
					<dim>1</dim>
					<dim>64</dim>
					<dim>80</dim>
					<dim>80</dim>
				</port>
			</output>
		</layer>
		<layer id="260" name="/model.5/cv2/cv2.0/cv2/act/Mul" type="Swish" version="opset4">
			<input>
				<port id="0" precision="FP32">
					<dim>1</dim>
					<dim>64</dim>
					<dim>80</dim>
					<dim>80</dim>
				</port>
			</input>
			<output>
				<port id="1" precision="FP32" names="/model.5/cv2/cv2.0/cv2/act/Mul_output_0">
					<dim>1</dim>
					<dim>64</dim>
					<dim>80</dim>
					<dim>80</dim>
				</port>
			</output>
		</layer>
		<layer id="261" name="/model.5/cv2/cv2.0/Concat" type="Concat" version="opset1">
			<data axis="1" />
			<input>
				<port id="0" precision="FP32">
					<dim>1</dim>
					<dim>64</dim>
					<dim>80</dim>
					<dim>80</dim>
				</port>
				<port id="1" precision="FP32">
					<dim>1</dim>
					<dim>64</dim>
					<dim>80</dim>
					<dim>80</dim>
				</port>
			</input>
			<output>
				<port id="2" precision="FP32" names="/model.5/cv2/cv2.0/Concat_output_0">
					<dim>1</dim>
					<dim>128</dim>
					<dim>80</dim>
					<dim>80</dim>
				</port>
			</output>
		</layer>
		<layer id="262" name="model.5.cv2.0.cv3.conv.weight_compressed" type="Const" version="opset1">
			<data element_type="f16" shape="128, 128, 1, 1" offset="1223996" size="32768" />
			<output>
				<port id="0" precision="FP16">
					<dim>128</dim>
					<dim>128</dim>
					<dim>1</dim>
					<dim>1</dim>
				</port>
			</output>
		</layer>
		<layer id="263" name="model.5.cv2.0.cv3.conv.weight" type="Convert" version="opset1">
			<data destination_type="f32" />
			<rt_info>
				<attribute name="decompression" version="0" />
			</rt_info>
			<input>
				<port id="0" precision="FP16">
					<dim>128</dim>
					<dim>128</dim>
					<dim>1</dim>
					<dim>1</dim>
				</port>
			</input>
			<output>
				<port id="1" precision="FP32" names="model.5.cv2.0.cv3.conv.weight">
					<dim>128</dim>
					<dim>128</dim>
					<dim>1</dim>
					<dim>1</dim>
				</port>
			</output>
		</layer>
		<layer id="264" name="/model.5/cv2/cv2.0/cv3/conv/Conv/WithoutBiases" type="Convolution" version="opset1">
			<data strides="1, 1" dilations="1, 1" pads_begin="0, 0" pads_end="0, 0" auto_pad="explicit" />
			<input>
				<port id="0" precision="FP32">
					<dim>1</dim>
					<dim>128</dim>
					<dim>80</dim>
					<dim>80</dim>
				</port>
				<port id="1" precision="FP32">
					<dim>128</dim>
					<dim>128</dim>
					<dim>1</dim>
					<dim>1</dim>
				</port>
			</input>
			<output>
				<port id="2" precision="FP32">
					<dim>1</dim>
					<dim>128</dim>
					<dim>80</dim>
					<dim>80</dim>
				</port>
			</output>
		</layer>
		<layer id="265" name="Reshape_1329_compressed" type="Const" version="opset1">
			<data element_type="f16" shape="1, 128, 1, 1" offset="1256764" size="256" />
			<output>
				<port id="0" precision="FP16">
					<dim>1</dim>
					<dim>128</dim>
					<dim>1</dim>
					<dim>1</dim>
				</port>
			</output>
		</layer>
		<layer id="266" name="Reshape_1329" type="Convert" version="opset1">
			<data destination_type="f32" />
			<rt_info>
				<attribute name="decompression" version="0" />
			</rt_info>
			<input>
				<port id="0" precision="FP16">
					<dim>1</dim>
					<dim>128</dim>
					<dim>1</dim>
					<dim>1</dim>
				</port>
			</input>
			<output>
				<port id="1" precision="FP32">
					<dim>1</dim>
					<dim>128</dim>
					<dim>1</dim>
					<dim>1</dim>
				</port>
			</output>
		</layer>
		<layer id="267" name="/model.5/cv2/cv2.0/cv3/conv/Conv" type="Add" version="opset1">
			<data auto_broadcast="numpy" />
			<input>
				<port id="0" precision="FP32">
					<dim>1</dim>
					<dim>128</dim>
					<dim>80</dim>
					<dim>80</dim>
				</port>
				<port id="1" precision="FP32">
					<dim>1</dim>
					<dim>128</dim>
					<dim>1</dim>
					<dim>1</dim>
				</port>
			</input>
			<output>
				<port id="2" precision="FP32" names="/model.5/cv2/cv2.0/cv3/conv/Conv_output_0">
					<dim>1</dim>
					<dim>128</dim>
					<dim>80</dim>
					<dim>80</dim>
				</port>
			</output>
		</layer>
		<layer id="268" name="/model.5/cv2/cv2.0/cv3/act/Mul" type="Swish" version="opset4">
			<input>
				<port id="0" precision="FP32">
					<dim>1</dim>
					<dim>128</dim>
					<dim>80</dim>
					<dim>80</dim>
				</port>
			</input>
			<output>
				<port id="1" precision="FP32" names="/model.5/cv2/cv2.0/cv3/act/Mul_output_0">
					<dim>1</dim>
					<dim>128</dim>
					<dim>80</dim>
					<dim>80</dim>
				</port>
			</output>
		</layer>
		<layer id="269" name="model.5.cv2.1.conv.weight_compressed" type="Const" version="opset1">
			<data element_type="f16" shape="128, 128, 3, 3" offset="1257020" size="294912" />
			<output>
				<port id="0" precision="FP16">
					<dim>128</dim>
					<dim>128</dim>
					<dim>3</dim>
					<dim>3</dim>
				</port>
			</output>
		</layer>
		<layer id="270" name="model.5.cv2.1.conv.weight" type="Convert" version="opset1">
			<data destination_type="f32" />
			<rt_info>
				<attribute name="decompression" version="0" />
			</rt_info>
			<input>
				<port id="0" precision="FP16">
					<dim>128</dim>
					<dim>128</dim>
					<dim>3</dim>
					<dim>3</dim>
				</port>
			</input>
			<output>
				<port id="1" precision="FP32" names="model.5.cv2.1.conv.weight">
					<dim>128</dim>
					<dim>128</dim>
					<dim>3</dim>
					<dim>3</dim>
				</port>
			</output>
		</layer>
		<layer id="271" name="/model.5/cv2/cv2.1/conv/Conv/WithoutBiases" type="Convolution" version="opset1">
			<data strides="1, 1" dilations="1, 1" pads_begin="1, 1" pads_end="1, 1" auto_pad="explicit" />
			<input>
				<port id="0" precision="FP32">
					<dim>1</dim>
					<dim>128</dim>
					<dim>80</dim>
					<dim>80</dim>
				</port>
				<port id="1" precision="FP32">
					<dim>128</dim>
					<dim>128</dim>
					<dim>3</dim>
					<dim>3</dim>
				</port>
			</input>
			<output>
				<port id="2" precision="FP32">
					<dim>1</dim>
					<dim>128</dim>
					<dim>80</dim>
					<dim>80</dim>
				</port>
			</output>
		</layer>
		<layer id="272" name="Reshape_1347_compressed" type="Const" version="opset1">
			<data element_type="f16" shape="1, 128, 1, 1" offset="1551932" size="256" />
			<output>
				<port id="0" precision="FP16">
					<dim>1</dim>
					<dim>128</dim>
					<dim>1</dim>
					<dim>1</dim>
				</port>
			</output>
		</layer>
		<layer id="273" name="Reshape_1347" type="Convert" version="opset1">
			<data destination_type="f32" />
			<rt_info>
				<attribute name="decompression" version="0" />
			</rt_info>
			<input>
				<port id="0" precision="FP16">
					<dim>1</dim>
					<dim>128</dim>
					<dim>1</dim>
					<dim>1</dim>
				</port>
			</input>
			<output>
				<port id="1" precision="FP32">
					<dim>1</dim>
					<dim>128</dim>
					<dim>1</dim>
					<dim>1</dim>
				</port>
			</output>
		</layer>
		<layer id="274" name="/model.5/cv2/cv2.1/conv/Conv" type="Add" version="opset1">
			<data auto_broadcast="numpy" />
			<input>
				<port id="0" precision="FP32">
					<dim>1</dim>
					<dim>128</dim>
					<dim>80</dim>
					<dim>80</dim>
				</port>
				<port id="1" precision="FP32">
					<dim>1</dim>
					<dim>128</dim>
					<dim>1</dim>
					<dim>1</dim>
				</port>
			</input>
			<output>
				<port id="2" precision="FP32" names="/model.5/cv2/cv2.1/conv/Conv_output_0">
					<dim>1</dim>
					<dim>128</dim>
					<dim>80</dim>
					<dim>80</dim>
				</port>
			</output>
		</layer>
		<layer id="275" name="/model.5/cv2/cv2.1/act/Mul" type="Swish" version="opset4">
			<input>
				<port id="0" precision="FP32">
					<dim>1</dim>
					<dim>128</dim>
					<dim>80</dim>
					<dim>80</dim>
				</port>
			</input>
			<output>
				<port id="1" precision="FP32" names="/model.5/cv2/cv2.1/act/Mul_output_0">
					<dim>1</dim>
					<dim>128</dim>
					<dim>80</dim>
					<dim>80</dim>
				</port>
			</output>
		</layer>
		<layer id="276" name="model.5.cv3.0.cv1.conv.weight_compressed" type="Const" version="opset1">
			<data element_type="f16" shape="64, 128, 1, 1" offset="1552188" size="16384" />
			<output>
				<port id="0" precision="FP16">
					<dim>64</dim>
					<dim>128</dim>
					<dim>1</dim>
					<dim>1</dim>
				</port>
			</output>
		</layer>
		<layer id="277" name="model.5.cv3.0.cv1.conv.weight" type="Convert" version="opset1">
			<data destination_type="f32" />
			<rt_info>
				<attribute name="decompression" version="0" />
			</rt_info>
			<input>
				<port id="0" precision="FP16">
					<dim>64</dim>
					<dim>128</dim>
					<dim>1</dim>
					<dim>1</dim>
				</port>
			</input>
			<output>
				<port id="1" precision="FP32" names="model.5.cv3.0.cv1.conv.weight">
					<dim>64</dim>
					<dim>128</dim>
					<dim>1</dim>
					<dim>1</dim>
				</port>
			</output>
		</layer>
		<layer id="278" name="/model.5/cv3/cv3.0/cv1/conv/Conv/WithoutBiases" type="Convolution" version="opset1">
			<data strides="1, 1" dilations="1, 1" pads_begin="0, 0" pads_end="0, 0" auto_pad="explicit" />
			<input>
				<port id="0" precision="FP32">
					<dim>1</dim>
					<dim>128</dim>
					<dim>80</dim>
					<dim>80</dim>
				</port>
				<port id="1" precision="FP32">
					<dim>64</dim>
					<dim>128</dim>
					<dim>1</dim>
					<dim>1</dim>
				</port>
			</input>
			<output>
				<port id="2" precision="FP32">
					<dim>1</dim>
					<dim>64</dim>
					<dim>80</dim>
					<dim>80</dim>
				</port>
			</output>
		</layer>
		<layer id="279" name="Reshape_1365_compressed" type="Const" version="opset1">
			<data element_type="f16" shape="1, 64, 1, 1" offset="1568572" size="128" />
			<output>
				<port id="0" precision="FP16">
					<dim>1</dim>
					<dim>64</dim>
					<dim>1</dim>
					<dim>1</dim>
				</port>
			</output>
		</layer>
		<layer id="280" name="Reshape_1365" type="Convert" version="opset1">
			<data destination_type="f32" />
			<rt_info>
				<attribute name="decompression" version="0" />
			</rt_info>
			<input>
				<port id="0" precision="FP16">
					<dim>1</dim>
					<dim>64</dim>
					<dim>1</dim>
					<dim>1</dim>
				</port>
			</input>
			<output>
				<port id="1" precision="FP32">
					<dim>1</dim>
					<dim>64</dim>
					<dim>1</dim>
					<dim>1</dim>
				</port>
			</output>
		</layer>
		<layer id="281" name="/model.5/cv3/cv3.0/cv1/conv/Conv" type="Add" version="opset1">
			<data auto_broadcast="numpy" />
			<input>
				<port id="0" precision="FP32">
					<dim>1</dim>
					<dim>64</dim>
					<dim>80</dim>
					<dim>80</dim>
				</port>
				<port id="1" precision="FP32">
					<dim>1</dim>
					<dim>64</dim>
					<dim>1</dim>
					<dim>1</dim>
				</port>
			</input>
			<output>
				<port id="2" precision="FP32" names="/model.5/cv3/cv3.0/cv1/conv/Conv_output_0">
					<dim>1</dim>
					<dim>64</dim>
					<dim>80</dim>
					<dim>80</dim>
				</port>
			</output>
		</layer>
		<layer id="282" name="/model.5/cv3/cv3.0/cv1/act/Mul" type="Swish" version="opset4">
			<input>
				<port id="0" precision="FP32">
					<dim>1</dim>
					<dim>64</dim>
					<dim>80</dim>
					<dim>80</dim>
				</port>
			</input>
			<output>
				<port id="1" precision="FP32" names="/model.5/cv3/cv3.0/cv1/act/Mul_output_0">
					<dim>1</dim>
					<dim>64</dim>
					<dim>80</dim>
					<dim>80</dim>
				</port>
			</output>
		</layer>
		<layer id="283" name="model.5.cv3.0.m.0.cv1.conv1.conv.weight_compressed" type="Const" version="opset1">
			<data element_type="f16" shape="64, 64, 3, 3" offset="1568700" size="73728" />
			<output>
				<port id="0" precision="FP16">
					<dim>64</dim>
					<dim>64</dim>
					<dim>3</dim>
					<dim>3</dim>
				</port>
			</output>
		</layer>
		<layer id="284" name="model.5.cv3.0.m.0.cv1.conv1.conv.weight" type="Convert" version="opset1">
			<data destination_type="f32" />
			<rt_info>
				<attribute name="decompression" version="0" />
			</rt_info>
			<input>
				<port id="0" precision="FP16">
					<dim>64</dim>
					<dim>64</dim>
					<dim>3</dim>
					<dim>3</dim>
				</port>
			</input>
			<output>
				<port id="1" precision="FP32" names="model.5.cv3.0.m.0.cv1.conv1.conv.weight">
					<dim>64</dim>
					<dim>64</dim>
					<dim>3</dim>
					<dim>3</dim>
				</port>
			</output>
		</layer>
		<layer id="285" name="/model.5/cv3/cv3.0/m/m.0/cv1/conv1/conv/Conv/WithoutBiases" type="Convolution" version="opset1">
			<data strides="1, 1" dilations="1, 1" pads_begin="1, 1" pads_end="1, 1" auto_pad="explicit" />
			<input>
				<port id="0" precision="FP32">
					<dim>1</dim>
					<dim>64</dim>
					<dim>80</dim>
					<dim>80</dim>
				</port>
				<port id="1" precision="FP32">
					<dim>64</dim>
					<dim>64</dim>
					<dim>3</dim>
					<dim>3</dim>
				</port>
			</input>
			<output>
				<port id="2" precision="FP32">
					<dim>1</dim>
					<dim>64</dim>
					<dim>80</dim>
					<dim>80</dim>
				</port>
			</output>
		</layer>
		<layer id="286" name="Reshape_1383_compressed" type="Const" version="opset1">
			<data element_type="f16" shape="1, 64, 1, 1" offset="1642428" size="128" />
			<output>
				<port id="0" precision="FP16">
					<dim>1</dim>
					<dim>64</dim>
					<dim>1</dim>
					<dim>1</dim>
				</port>
			</output>
		</layer>
		<layer id="287" name="Reshape_1383" type="Convert" version="opset1">
			<data destination_type="f32" />
			<rt_info>
				<attribute name="decompression" version="0" />
			</rt_info>
			<input>
				<port id="0" precision="FP16">
					<dim>1</dim>
					<dim>64</dim>
					<dim>1</dim>
					<dim>1</dim>
				</port>
			</input>
			<output>
				<port id="1" precision="FP32">
					<dim>1</dim>
					<dim>64</dim>
					<dim>1</dim>
					<dim>1</dim>
				</port>
			</output>
		</layer>
		<layer id="288" name="/model.5/cv3/cv3.0/m/m.0/cv1/conv1/conv/Conv" type="Add" version="opset1">
			<data auto_broadcast="numpy" />
			<input>
				<port id="0" precision="FP32">
					<dim>1</dim>
					<dim>64</dim>
					<dim>80</dim>
					<dim>80</dim>
				</port>
				<port id="1" precision="FP32">
					<dim>1</dim>
					<dim>64</dim>
					<dim>1</dim>
					<dim>1</dim>
				</port>
			</input>
			<output>
				<port id="2" precision="FP32" names="/model.5/cv3/cv3.0/m/m.0/cv1/conv1/conv/Conv_output_0">
					<dim>1</dim>
					<dim>64</dim>
					<dim>80</dim>
					<dim>80</dim>
				</port>
			</output>
		</layer>
		<layer id="289" name="model.5.cv3.0.m.0.cv1.conv2.conv.weight_compressed" type="Const" version="opset1">
			<data element_type="f16" shape="64, 64, 1, 1" offset="1642556" size="8192" />
			<output>
				<port id="0" precision="FP16">
					<dim>64</dim>
					<dim>64</dim>
					<dim>1</dim>
					<dim>1</dim>
				</port>
			</output>
		</layer>
		<layer id="290" name="model.5.cv3.0.m.0.cv1.conv2.conv.weight" type="Convert" version="opset1">
			<data destination_type="f32" />
			<rt_info>
				<attribute name="decompression" version="0" />
			</rt_info>
			<input>
				<port id="0" precision="FP16">
					<dim>64</dim>
					<dim>64</dim>
					<dim>1</dim>
					<dim>1</dim>
				</port>
			</input>
			<output>
				<port id="1" precision="FP32" names="model.5.cv3.0.m.0.cv1.conv2.conv.weight">
					<dim>64</dim>
					<dim>64</dim>
					<dim>1</dim>
					<dim>1</dim>
				</port>
			</output>
		</layer>
		<layer id="291" name="/model.5/cv3/cv3.0/m/m.0/cv1/conv2/conv/Conv/WithoutBiases" type="Convolution" version="opset1">
			<data strides="1, 1" dilations="1, 1" pads_begin="0, 0" pads_end="0, 0" auto_pad="explicit" />
			<input>
				<port id="0" precision="FP32">
					<dim>1</dim>
					<dim>64</dim>
					<dim>80</dim>
					<dim>80</dim>
				</port>
				<port id="1" precision="FP32">
					<dim>64</dim>
					<dim>64</dim>
					<dim>1</dim>
					<dim>1</dim>
				</port>
			</input>
			<output>
				<port id="2" precision="FP32">
					<dim>1</dim>
					<dim>64</dim>
					<dim>80</dim>
					<dim>80</dim>
				</port>
			</output>
		</layer>
		<layer id="292" name="Reshape_1399_compressed" type="Const" version="opset1">
			<data element_type="f16" shape="1, 64, 1, 1" offset="1650748" size="128" />
			<output>
				<port id="0" precision="FP16">
					<dim>1</dim>
					<dim>64</dim>
					<dim>1</dim>
					<dim>1</dim>
				</port>
			</output>
		</layer>
		<layer id="293" name="Reshape_1399" type="Convert" version="opset1">
			<data destination_type="f32" />
			<rt_info>
				<attribute name="decompression" version="0" />
			</rt_info>
			<input>
				<port id="0" precision="FP16">
					<dim>1</dim>
					<dim>64</dim>
					<dim>1</dim>
					<dim>1</dim>
				</port>
			</input>
			<output>
				<port id="1" precision="FP32">
					<dim>1</dim>
					<dim>64</dim>
					<dim>1</dim>
					<dim>1</dim>
				</port>
			</output>
		</layer>
		<layer id="294" name="/model.5/cv3/cv3.0/m/m.0/cv1/conv2/conv/Conv" type="Add" version="opset1">
			<data auto_broadcast="numpy" />
			<input>
				<port id="0" precision="FP32">
					<dim>1</dim>
					<dim>64</dim>
					<dim>80</dim>
					<dim>80</dim>
				</port>
				<port id="1" precision="FP32">
					<dim>1</dim>
					<dim>64</dim>
					<dim>1</dim>
					<dim>1</dim>
				</port>
			</input>
			<output>
				<port id="2" precision="FP32" names="/model.5/cv3/cv3.0/m/m.0/cv1/conv2/conv/Conv_output_0">
					<dim>1</dim>
					<dim>64</dim>
					<dim>80</dim>
					<dim>80</dim>
				</port>
			</output>
		</layer>
		<layer id="295" name="/model.5/cv3/cv3.0/m/m.0/cv1/Add" type="Add" version="opset1">
			<data auto_broadcast="numpy" />
			<input>
				<port id="0" precision="FP32">
					<dim>1</dim>
					<dim>64</dim>
					<dim>80</dim>
					<dim>80</dim>
				</port>
				<port id="1" precision="FP32">
					<dim>1</dim>
					<dim>64</dim>
					<dim>80</dim>
					<dim>80</dim>
				</port>
			</input>
			<output>
				<port id="2" precision="FP32" names="/model.5/cv3/cv3.0/m/m.0/cv1/Add_1_output_0,/model.5/cv3/cv3.0/m/m.0/cv1/Add_output_0">
					<dim>1</dim>
					<dim>64</dim>
					<dim>80</dim>
					<dim>80</dim>
				</port>
			</output>
		</layer>
		<layer id="296" name="/model.5/cv3/cv3.0/m/m.0/cv1/act/Mul" type="Swish" version="opset4">
			<input>
				<port id="0" precision="FP32">
					<dim>1</dim>
					<dim>64</dim>
					<dim>80</dim>
					<dim>80</dim>
				</port>
			</input>
			<output>
				<port id="1" precision="FP32" names="/model.5/cv3/cv3.0/m/m.0/cv1/act/Mul_output_0">
					<dim>1</dim>
					<dim>64</dim>
					<dim>80</dim>
					<dim>80</dim>
				</port>
			</output>
		</layer>
		<layer id="297" name="model.5.cv3.0.m.0.cv2.conv.weight_compressed" type="Const" version="opset1">
			<data element_type="f16" shape="64, 64, 3, 3" offset="1650876" size="73728" />
			<output>
				<port id="0" precision="FP16">
					<dim>64</dim>
					<dim>64</dim>
					<dim>3</dim>
					<dim>3</dim>
				</port>
			</output>
		</layer>
		<layer id="298" name="model.5.cv3.0.m.0.cv2.conv.weight" type="Convert" version="opset1">
			<data destination_type="f32" />
			<rt_info>
				<attribute name="decompression" version="0" />
			</rt_info>
			<input>
				<port id="0" precision="FP16">
					<dim>64</dim>
					<dim>64</dim>
					<dim>3</dim>
					<dim>3</dim>
				</port>
			</input>
			<output>
				<port id="1" precision="FP32" names="model.5.cv3.0.m.0.cv2.conv.weight">
					<dim>64</dim>
					<dim>64</dim>
					<dim>3</dim>
					<dim>3</dim>
				</port>
			</output>
		</layer>
		<layer id="299" name="/model.5/cv3/cv3.0/m/m.0/cv2/conv/Conv/WithoutBiases" type="Convolution" version="opset1">
			<data strides="1, 1" dilations="1, 1" pads_begin="1, 1" pads_end="1, 1" auto_pad="explicit" />
			<input>
				<port id="0" precision="FP32">
					<dim>1</dim>
					<dim>64</dim>
					<dim>80</dim>
					<dim>80</dim>
				</port>
				<port id="1" precision="FP32">
					<dim>64</dim>
					<dim>64</dim>
					<dim>3</dim>
					<dim>3</dim>
				</port>
			</input>
			<output>
				<port id="2" precision="FP32">
					<dim>1</dim>
					<dim>64</dim>
					<dim>80</dim>
					<dim>80</dim>
				</port>
			</output>
		</layer>
		<layer id="300" name="Reshape_1420_compressed" type="Const" version="opset1">
			<data element_type="f16" shape="1, 64, 1, 1" offset="1724604" size="128" />
			<output>
				<port id="0" precision="FP16">
					<dim>1</dim>
					<dim>64</dim>
					<dim>1</dim>
					<dim>1</dim>
				</port>
			</output>
		</layer>
		<layer id="301" name="Reshape_1420" type="Convert" version="opset1">
			<data destination_type="f32" />
			<rt_info>
				<attribute name="decompression" version="0" />
			</rt_info>
			<input>
				<port id="0" precision="FP16">
					<dim>1</dim>
					<dim>64</dim>
					<dim>1</dim>
					<dim>1</dim>
				</port>
			</input>
			<output>
				<port id="1" precision="FP32">
					<dim>1</dim>
					<dim>64</dim>
					<dim>1</dim>
					<dim>1</dim>
				</port>
			</output>
		</layer>
		<layer id="302" name="/model.5/cv3/cv3.0/m/m.0/cv2/conv/Conv" type="Add" version="opset1">
			<data auto_broadcast="numpy" />
			<input>
				<port id="0" precision="FP32">
					<dim>1</dim>
					<dim>64</dim>
					<dim>80</dim>
					<dim>80</dim>
				</port>
				<port id="1" precision="FP32">
					<dim>1</dim>
					<dim>64</dim>
					<dim>1</dim>
					<dim>1</dim>
				</port>
			</input>
			<output>
				<port id="2" precision="FP32" names="/model.5/cv3/cv3.0/m/m.0/cv2/conv/Conv_output_0">
					<dim>1</dim>
					<dim>64</dim>
					<dim>80</dim>
					<dim>80</dim>
				</port>
			</output>
		</layer>
		<layer id="303" name="/model.5/cv3/cv3.0/m/m.0/cv2/act/Mul" type="Swish" version="opset4">
			<input>
				<port id="0" precision="FP32">
					<dim>1</dim>
					<dim>64</dim>
					<dim>80</dim>
					<dim>80</dim>
				</port>
			</input>
			<output>
				<port id="1" precision="FP32" names="/model.5/cv3/cv3.0/m/m.0/cv2/act/Mul_output_0">
					<dim>1</dim>
					<dim>64</dim>
					<dim>80</dim>
					<dim>80</dim>
				</port>
			</output>
		</layer>
		<layer id="304" name="/model.5/cv3/cv3.0/m/m.0/Add" type="Add" version="opset1">
			<data auto_broadcast="numpy" />
			<input>
				<port id="0" precision="FP32">
					<dim>1</dim>
					<dim>64</dim>
					<dim>80</dim>
					<dim>80</dim>
				</port>
				<port id="1" precision="FP32">
					<dim>1</dim>
					<dim>64</dim>
					<dim>80</dim>
					<dim>80</dim>
				</port>
			</input>
			<output>
				<port id="2" precision="FP32" names="/model.5/cv3/cv3.0/m/m.0/Add_output_0">
					<dim>1</dim>
					<dim>64</dim>
					<dim>80</dim>
					<dim>80</dim>
				</port>
			</output>
		</layer>
		<layer id="305" name="model.5.cv3.0.cv2.conv.weight_compressed" type="Const" version="opset1">
			<data element_type="f16" shape="64, 128, 1, 1" offset="1724732" size="16384" />
			<output>
				<port id="0" precision="FP16">
					<dim>64</dim>
					<dim>128</dim>
					<dim>1</dim>
					<dim>1</dim>
				</port>
			</output>
		</layer>
		<layer id="306" name="model.5.cv3.0.cv2.conv.weight" type="Convert" version="opset1">
			<data destination_type="f32" />
			<rt_info>
				<attribute name="decompression" version="0" />
			</rt_info>
			<input>
				<port id="0" precision="FP16">
					<dim>64</dim>
					<dim>128</dim>
					<dim>1</dim>
					<dim>1</dim>
				</port>
			</input>
			<output>
				<port id="1" precision="FP32" names="model.5.cv3.0.cv2.conv.weight">
					<dim>64</dim>
					<dim>128</dim>
					<dim>1</dim>
					<dim>1</dim>
				</port>
			</output>
		</layer>
		<layer id="307" name="/model.5/cv3/cv3.0/cv2/conv/Conv/WithoutBiases" type="Convolution" version="opset1">
			<data strides="1, 1" dilations="1, 1" pads_begin="0, 0" pads_end="0, 0" auto_pad="explicit" />
			<input>
				<port id="0" precision="FP32">
					<dim>1</dim>
					<dim>128</dim>
					<dim>80</dim>
					<dim>80</dim>
				</port>
				<port id="1" precision="FP32">
					<dim>64</dim>
					<dim>128</dim>
					<dim>1</dim>
					<dim>1</dim>
				</port>
			</input>
			<output>
				<port id="2" precision="FP32">
					<dim>1</dim>
					<dim>64</dim>
					<dim>80</dim>
					<dim>80</dim>
				</port>
			</output>
		</layer>
		<layer id="308" name="Reshape_1439_compressed" type="Const" version="opset1">
			<data element_type="f16" shape="1, 64, 1, 1" offset="1741116" size="128" />
			<output>
				<port id="0" precision="FP16">
					<dim>1</dim>
					<dim>64</dim>
					<dim>1</dim>
					<dim>1</dim>
				</port>
			</output>
		</layer>
		<layer id="309" name="Reshape_1439" type="Convert" version="opset1">
			<data destination_type="f32" />
			<rt_info>
				<attribute name="decompression" version="0" />
			</rt_info>
			<input>
				<port id="0" precision="FP16">
					<dim>1</dim>
					<dim>64</dim>
					<dim>1</dim>
					<dim>1</dim>
				</port>
			</input>
			<output>
				<port id="1" precision="FP32">
					<dim>1</dim>
					<dim>64</dim>
					<dim>1</dim>
					<dim>1</dim>
				</port>
			</output>
		</layer>
		<layer id="310" name="/model.5/cv3/cv3.0/cv2/conv/Conv" type="Add" version="opset1">
			<data auto_broadcast="numpy" />
			<input>
				<port id="0" precision="FP32">
					<dim>1</dim>
					<dim>64</dim>
					<dim>80</dim>
					<dim>80</dim>
				</port>
				<port id="1" precision="FP32">
					<dim>1</dim>
					<dim>64</dim>
					<dim>1</dim>
					<dim>1</dim>
				</port>
			</input>
			<output>
				<port id="2" precision="FP32" names="/model.5/cv3/cv3.0/cv2/conv/Conv_output_0">
					<dim>1</dim>
					<dim>64</dim>
					<dim>80</dim>
					<dim>80</dim>
				</port>
			</output>
		</layer>
		<layer id="311" name="/model.5/cv3/cv3.0/cv2/act/Mul" type="Swish" version="opset4">
			<input>
				<port id="0" precision="FP32">
					<dim>1</dim>
					<dim>64</dim>
					<dim>80</dim>
					<dim>80</dim>
				</port>
			</input>
			<output>
				<port id="1" precision="FP32" names="/model.5/cv3/cv3.0/cv2/act/Mul_output_0">
					<dim>1</dim>
					<dim>64</dim>
					<dim>80</dim>
					<dim>80</dim>
				</port>
			</output>
		</layer>
		<layer id="312" name="/model.5/cv3/cv3.0/Concat" type="Concat" version="opset1">
			<data axis="1" />
			<input>
				<port id="0" precision="FP32">
					<dim>1</dim>
					<dim>64</dim>
					<dim>80</dim>
					<dim>80</dim>
				</port>
				<port id="1" precision="FP32">
					<dim>1</dim>
					<dim>64</dim>
					<dim>80</dim>
					<dim>80</dim>
				</port>
			</input>
			<output>
				<port id="2" precision="FP32" names="/model.5/cv3/cv3.0/Concat_output_0">
					<dim>1</dim>
					<dim>128</dim>
					<dim>80</dim>
					<dim>80</dim>
				</port>
			</output>
		</layer>
		<layer id="313" name="model.5.cv3.0.cv3.conv.weight_compressed" type="Const" version="opset1">
			<data element_type="f16" shape="128, 128, 1, 1" offset="1741244" size="32768" />
			<output>
				<port id="0" precision="FP16">
					<dim>128</dim>
					<dim>128</dim>
					<dim>1</dim>
					<dim>1</dim>
				</port>
			</output>
		</layer>
		<layer id="314" name="model.5.cv3.0.cv3.conv.weight" type="Convert" version="opset1">
			<data destination_type="f32" />
			<rt_info>
				<attribute name="decompression" version="0" />
			</rt_info>
			<input>
				<port id="0" precision="FP16">
					<dim>128</dim>
					<dim>128</dim>
					<dim>1</dim>
					<dim>1</dim>
				</port>
			</input>
			<output>
				<port id="1" precision="FP32" names="model.5.cv3.0.cv3.conv.weight">
					<dim>128</dim>
					<dim>128</dim>
					<dim>1</dim>
					<dim>1</dim>
				</port>
			</output>
		</layer>
		<layer id="315" name="/model.5/cv3/cv3.0/cv3/conv/Conv/WithoutBiases" type="Convolution" version="opset1">
			<data strides="1, 1" dilations="1, 1" pads_begin="0, 0" pads_end="0, 0" auto_pad="explicit" />
			<input>
				<port id="0" precision="FP32">
					<dim>1</dim>
					<dim>128</dim>
					<dim>80</dim>
					<dim>80</dim>
				</port>
				<port id="1" precision="FP32">
					<dim>128</dim>
					<dim>128</dim>
					<dim>1</dim>
					<dim>1</dim>
				</port>
			</input>
			<output>
				<port id="2" precision="FP32">
					<dim>1</dim>
					<dim>128</dim>
					<dim>80</dim>
					<dim>80</dim>
				</port>
			</output>
		</layer>
		<layer id="316" name="Reshape_1458_compressed" type="Const" version="opset1">
			<data element_type="f16" shape="1, 128, 1, 1" offset="1774012" size="256" />
			<output>
				<port id="0" precision="FP16">
					<dim>1</dim>
					<dim>128</dim>
					<dim>1</dim>
					<dim>1</dim>
				</port>
			</output>
		</layer>
		<layer id="317" name="Reshape_1458" type="Convert" version="opset1">
			<data destination_type="f32" />
			<rt_info>
				<attribute name="decompression" version="0" />
			</rt_info>
			<input>
				<port id="0" precision="FP16">
					<dim>1</dim>
					<dim>128</dim>
					<dim>1</dim>
					<dim>1</dim>
				</port>
			</input>
			<output>
				<port id="1" precision="FP32">
					<dim>1</dim>
					<dim>128</dim>
					<dim>1</dim>
					<dim>1</dim>
				</port>
			</output>
		</layer>
		<layer id="318" name="/model.5/cv3/cv3.0/cv3/conv/Conv" type="Add" version="opset1">
			<data auto_broadcast="numpy" />
			<input>
				<port id="0" precision="FP32">
					<dim>1</dim>
					<dim>128</dim>
					<dim>80</dim>
					<dim>80</dim>
				</port>
				<port id="1" precision="FP32">
					<dim>1</dim>
					<dim>128</dim>
					<dim>1</dim>
					<dim>1</dim>
				</port>
			</input>
			<output>
				<port id="2" precision="FP32" names="/model.5/cv3/cv3.0/cv3/conv/Conv_output_0">
					<dim>1</dim>
					<dim>128</dim>
					<dim>80</dim>
					<dim>80</dim>
				</port>
			</output>
		</layer>
		<layer id="319" name="/model.5/cv3/cv3.0/cv3/act/Mul" type="Swish" version="opset4">
			<input>
				<port id="0" precision="FP32">
					<dim>1</dim>
					<dim>128</dim>
					<dim>80</dim>
					<dim>80</dim>
				</port>
			</input>
			<output>
				<port id="1" precision="FP32" names="/model.5/cv3/cv3.0/cv3/act/Mul_output_0">
					<dim>1</dim>
					<dim>128</dim>
					<dim>80</dim>
					<dim>80</dim>
				</port>
			</output>
		</layer>
		<layer id="320" name="model.5.cv3.1.conv.weight_compressed" type="Const" version="opset1">
			<data element_type="f16" shape="128, 128, 3, 3" offset="1774268" size="294912" />
			<output>
				<port id="0" precision="FP16">
					<dim>128</dim>
					<dim>128</dim>
					<dim>3</dim>
					<dim>3</dim>
				</port>
			</output>
		</layer>
		<layer id="321" name="model.5.cv3.1.conv.weight" type="Convert" version="opset1">
			<data destination_type="f32" />
			<rt_info>
				<attribute name="decompression" version="0" />
			</rt_info>
			<input>
				<port id="0" precision="FP16">
					<dim>128</dim>
					<dim>128</dim>
					<dim>3</dim>
					<dim>3</dim>
				</port>
			</input>
			<output>
				<port id="1" precision="FP32" names="model.5.cv3.1.conv.weight">
					<dim>128</dim>
					<dim>128</dim>
					<dim>3</dim>
					<dim>3</dim>
				</port>
			</output>
		</layer>
		<layer id="322" name="/model.5/cv3/cv3.1/conv/Conv/WithoutBiases" type="Convolution" version="opset1">
			<data strides="1, 1" dilations="1, 1" pads_begin="1, 1" pads_end="1, 1" auto_pad="explicit" />
			<input>
				<port id="0" precision="FP32">
					<dim>1</dim>
					<dim>128</dim>
…
		<edge from-layer="1851" from-port="1" to-layer="1854" to-port="0" />
		<edge from-layer="1851" from-port="1" to-layer="1883" to-port="0" />
		<edge from-layer="1851" from-port="1" to-layer="1903" to-port="2" />
		<edge from-layer="1852" from-port="0" to-layer="1853" to-port="0" />
		<edge from-layer="1853" from-port="1" to-layer="1854" to-port="1" />
		<edge from-layer="1854" from-port="2" to-layer="1857" to-port="0" />
		<edge from-layer="1855" from-port="0" to-layer="1856" to-port="0" />
		<edge from-layer="1856" from-port="1" to-layer="1857" to-port="1" />
		<edge from-layer="1857" from-port="2" to-layer="1858" to-port="0" />
		<edge from-layer="1858" from-port="1" to-layer="1880" to-port="0" />
		<edge from-layer="1858" from-port="1" to-layer="1861" to-port="0" />
		<edge from-layer="1858" from-port="1" to-layer="1867" to-port="0" />
		<edge from-layer="1859" from-port="0" to-layer="1860" to-port="0" />
		<edge from-layer="1860" from-port="1" to-layer="1861" to-port="1" />
		<edge from-layer="1861" from-port="2" to-layer="1864" to-port="0" />
		<edge from-layer="1862" from-port="0" to-layer="1863" to-port="0" />
		<edge from-layer="1863" from-port="1" to-layer="1864" to-port="1" />
		<edge from-layer="1864" from-port="2" to-layer="1871" to-port="0" />
		<edge from-layer="1865" from-port="0" to-layer="1866" to-port="0" />
		<edge from-layer="1866" from-port="1" to-layer="1867" to-port="1" />
		<edge from-layer="1867" from-port="2" to-layer="1870" to-port="0" />
		<edge from-layer="1868" from-port="0" to-layer="1869" to-port="0" />
		<edge from-layer="1869" from-port="1" to-layer="1870" to-port="1" />
		<edge from-layer="1870" from-port="2" to-layer="1871" to-port="1" />
		<edge from-layer="1871" from-port="2" to-layer="1872" to-port="0" />
		<edge from-layer="1872" from-port="1" to-layer="1875" to-port="0" />
		<edge from-layer="1873" from-port="0" to-layer="1874" to-port="0" />
		<edge from-layer="1874" from-port="1" to-layer="1875" to-port="1" />
		<edge from-layer="1875" from-port="2" to-layer="1878" to-port="0" />
		<edge from-layer="1876" from-port="0" to-layer="1877" to-port="0" />
		<edge from-layer="1877" from-port="1" to-layer="1878" to-port="1" />
		<edge from-layer="1878" from-port="2" to-layer="1879" to-port="0" />
		<edge from-layer="1879" from-port="1" to-layer="1880" to-port="1" />
		<edge from-layer="1880" from-port="2" to-layer="1888" to-port="0" />
		<edge from-layer="1881" from-port="0" to-layer="1882" to-port="0" />
		<edge from-layer="1882" from-port="1" to-layer="1883" to-port="1" />
		<edge from-layer="1883" from-port="2" to-layer="1886" to-port="0" />
		<edge from-layer="1884" from-port="0" to-layer="1885" to-port="0" />
		<edge from-layer="1885" from-port="1" to-layer="1886" to-port="1" />
		<edge from-layer="1886" from-port="2" to-layer="1887" to-port="0" />
		<edge from-layer="1887" from-port="1" to-layer="1888" to-port="1" />
		<edge from-layer="1888" from-port="2" to-layer="1891" to-port="0" />
		<edge from-layer="1889" from-port="0" to-layer="1890" to-port="0" />
		<edge from-layer="1890" from-port="1" to-layer="1891" to-port="1" />
		<edge from-layer="1891" from-port="2" to-layer="1894" to-port="0" />
		<edge from-layer="1892" from-port="0" to-layer="1893" to-port="0" />
		<edge from-layer="1893" from-port="1" to-layer="1894" to-port="1" />
		<edge from-layer="1894" from-port="2" to-layer="1895" to-port="0" />
		<edge from-layer="1895" from-port="1" to-layer="1898" to-port="0" />
		<edge from-layer="1896" from-port="0" to-layer="1897" to-port="0" />
		<edge from-layer="1897" from-port="1" to-layer="1898" to-port="1" />
		<edge from-layer="1898" from-port="2" to-layer="1901" to-port="0" />
		<edge from-layer="1899" from-port="0" to-layer="1900" to-port="0" />
		<edge from-layer="1900" from-port="1" to-layer="1901" to-port="1" />
		<edge from-layer="1901" from-port="2" to-layer="1902" to-port="0" />
		<edge from-layer="1902" from-port="1" to-layer="1903" to-port="3" />
		<edge from-layer="1903" from-port="4" to-layer="1906" to-port="0" />
		<edge from-layer="1904" from-port="0" to-layer="1905" to-port="0" />
		<edge from-layer="1905" from-port="1" to-layer="1906" to-port="1" />
		<edge from-layer="1906" from-port="2" to-layer="1909" to-port="0" />
		<edge from-layer="1907" from-port="0" to-layer="1908" to-port="0" />
		<edge from-layer="1908" from-port="1" to-layer="1909" to-port="1" />
		<edge from-layer="1909" from-port="2" to-layer="1910" to-port="0" />
		<edge from-layer="1910" from-port="1" to-layer="1911" to-port="0" />
		<edge from-layer="1910" from-port="1" to-layer="2385" to-port="0" />
		<edge from-layer="1910" from-port="1" to-layer="2365" to-port="0" />
		<edge from-layer="1911" from-port="1" to-layer="1926" to-port="0" />
		<edge from-layer="1911" from-port="1" to-layer="1941" to-port="0" />
		<edge from-layer="1911" from-port="1" to-layer="1915" to-port="0" />
		<edge from-layer="1912" from-port="0" to-layer="1926" to-port="1" />
		<edge from-layer="1913" from-port="0" to-layer="1924" to-port="0" />
		<edge from-layer="1914" from-port="0" to-layer="1924" to-port="1" />
		<edge from-layer="1915" from-port="1" to-layer="1918" to-port="0" />
		<edge from-layer="1916" from-port="0" to-layer="1918" to-port="1" />
		<edge from-layer="1917" from-port="0" to-layer="1918" to-port="2" />
		<edge from-layer="1918" from-port="3" to-layer="1920" to-port="0" />
		<edge from-layer="1919" from-port="0" to-layer="1920" to-port="1" />
		<edge from-layer="1920" from-port="2" to-layer="1922" to-port="0" />
		<edge from-layer="1921" from-port="0" to-layer="1922" to-port="1" />
		<edge from-layer="1922" from-port="2" to-layer="1924" to-port="2" />
		<edge from-layer="1922" from-port="2" to-layer="1937" to-port="0" />
		<edge from-layer="1923" from-port="0" to-layer="1924" to-port="3" />
		<edge from-layer="1924" from-port="4" to-layer="1926" to-port="2" />
		<edge from-layer="1924" from-port="4" to-layer="1941" to-port="1" />
		<edge from-layer="1925" from-port="0" to-layer="1926" to-port="3" />
		<edge from-layer="1926" from-port="4" to-layer="1929" to-port="0" />
		<edge from-layer="1927" from-port="0" to-layer="1928" to-port="0" />
		<edge from-layer="1928" from-port="1" to-layer="1929" to-port="1" />
		<edge from-layer="1929" from-port="2" to-layer="1932" to-port="0" />
		<edge from-layer="1930" from-port="0" to-layer="1931" to-port="0" />
		<edge from-layer="1931" from-port="1" to-layer="1932" to-port="1" />
		<edge from-layer="1932" from-port="2" to-layer="1933" to-port="0" />
		<edge from-layer="1933" from-port="1" to-layer="1950" to-port="0" />
		<edge from-layer="1934" from-port="0" to-layer="1939" to-port="0" />
		<edge from-layer="1935" from-port="0" to-layer="1939" to-port="1" />
		<edge from-layer="1936" from-port="0" to-layer="1937" to-port="1" />
		<edge from-layer="1937" from-port="2" to-layer="1939" to-port="2" />
		<edge from-layer="1938" from-port="0" to-layer="1939" to-port="3" />
		<edge from-layer="1939" from-port="4" to-layer="1941" to-port="2" />
		<edge from-layer="1940" from-port="0" to-layer="1941" to-port="3" />
		<edge from-layer="1941" from-port="4" to-layer="1942" to-port="0" />
		<edge from-layer="1942" from-port="1" to-layer="1945" to-port="0" />
		<edge from-layer="1943" from-port="0" to-layer="1944" to-port="0" />
		<edge from-layer="1944" from-port="1" to-layer="1945" to-port="1" />
		<edge from-layer="1945" from-port="2" to-layer="1948" to-port="0" />
		<edge from-layer="1946" from-port="0" to-layer="1947" to-port="0" />
		<edge from-layer="1947" from-port="1" to-layer="1948" to-port="1" />
		<edge from-layer="1948" from-port="2" to-layer="1949" to-port="0" />
		<edge from-layer="1949" from-port="1" to-layer="1950" to-port="1" />
		<edge from-layer="1950" from-port="2" to-layer="1952" to-port="0" />
		<edge from-layer="1951" from-port="0" to-layer="1952" to-port="1" />
		<edge from-layer="1952" from-port="2" to-layer="1953" to-port="2" />
		<edge from-layer="1953" from-port="3" to-layer="1954" to-port="0" />
		<edge from-layer="1954" from-port="2" to-layer="1957" to-port="0" />
		<edge from-layer="1955" from-port="0" to-layer="1956" to-port="0" />
		<edge from-layer="1956" from-port="1" to-layer="1957" to-port="1" />
		<edge from-layer="1957" from-port="2" to-layer="1960" to-port="0" />
		<edge from-layer="1958" from-port="0" to-layer="1959" to-port="0" />
		<edge from-layer="1959" from-port="1" to-layer="1960" to-port="1" />
		<edge from-layer="1960" from-port="2" to-layer="1961" to-port="0" />
		<edge from-layer="1961" from-port="1" to-layer="1976" to-port="0" />
		<edge from-layer="1961" from-port="1" to-layer="1984" to-port="0" />
		<edge from-layer="1961" from-port="1" to-layer="1965" to-port="0" />
		<edge from-layer="1962" from-port="0" to-layer="1976" to-port="1" />
		<edge from-layer="1963" from-port="0" to-layer="1974" to-port="0" />
		<edge from-layer="1964" from-port="0" to-layer="1974" to-port="1" />
		<edge from-layer="1965" from-port="1" to-layer="1968" to-port="0" />
		<edge from-layer="1966" from-port="0" to-layer="1968" to-port="1" />
		<edge from-layer="1967" from-port="0" to-layer="1968" to-port="2" />
		<edge from-layer="1968" from-port="3" to-layer="1970" to-port="0" />
		<edge from-layer="1969" from-port="0" to-layer="1970" to-port="1" />
		<edge from-layer="1970" from-port="2" to-layer="1972" to-port="0" />
		<edge from-layer="1971" from-port="0" to-layer="1972" to-port="1" />
		<edge from-layer="1972" from-port="2" to-layer="1980" to-port="0" />
		<edge from-layer="1972" from-port="2" to-layer="1974" to-port="2" />
		<edge from-layer="1973" from-port="0" to-layer="1974" to-port="3" />
		<edge from-layer="1974" from-port="4" to-layer="1984" to-port="1" />
		<edge from-layer="1974" from-port="4" to-layer="1976" to-port="2" />
		<edge from-layer="1975" from-port="0" to-layer="1976" to-port="3" />
		<edge from-layer="1976" from-port="4" to-layer="2087" to-port="0" />
		<edge from-layer="1977" from-port="0" to-layer="1982" to-port="0" />
		<edge from-layer="1978" from-port="0" to-layer="1982" to-port="1" />
		<edge from-layer="1979" from-port="0" to-layer="1980" to-port="1" />
		<edge from-layer="1980" from-port="2" to-layer="1982" to-port="2" />
		<edge from-layer="1981" from-port="0" to-layer="1982" to-port="3" />
		<edge from-layer="1982" from-port="4" to-layer="1984" to-port="2" />
		<edge from-layer="1983" from-port="0" to-layer="1984" to-port="3" />
		<edge from-layer="1984" from-port="4" to-layer="2087" to-port="1" />
		<edge from-layer="1984" from-port="4" to-layer="1987" to-port="0" />
		<edge from-layer="1984" from-port="4" to-layer="2016" to-port="0" />
		<edge from-layer="1985" from-port="0" to-layer="1986" to-port="0" />
		<edge from-layer="1986" from-port="1" to-layer="1987" to-port="1" />
		<edge from-layer="1987" from-port="2" to-layer="1990" to-port="0" />
		<edge from-layer="1988" from-port="0" to-layer="1989" to-port="0" />
		<edge from-layer="1989" from-port="1" to-layer="1990" to-port="1" />
		<edge from-layer="1990" from-port="2" to-layer="1991" to-port="0" />
		<edge from-layer="1991" from-port="1" to-layer="2000" to-port="0" />
		<edge from-layer="1991" from-port="1" to-layer="2013" to-port="0" />
		<edge from-layer="1991" from-port="1" to-layer="1994" to-port="0" />
		<edge from-layer="1992" from-port="0" to-layer="1993" to-port="0" />
		<edge from-layer="1993" from-port="1" to-layer="1994" to-port="1" />
		<edge from-layer="1994" from-port="2" to-layer="1997" to-port="0" />
		<edge from-layer="1995" from-port="0" to-layer="1996" to-port="0" />
		<edge from-layer="1996" from-port="1" to-layer="1997" to-port="1" />
		<edge from-layer="1997" from-port="2" to-layer="2004" to-port="0" />
		<edge from-layer="1998" from-port="0" to-layer="1999" to-port="0" />
		<edge from-layer="1999" from-port="1" to-layer="2000" to-port="1" />
		<edge from-layer="2000" from-port="2" to-layer="2003" to-port="0" />
		<edge from-layer="2001" from-port="0" to-layer="2002" to-port="0" />
		<edge from-layer="2002" from-port="1" to-layer="2003" to-port="1" />
		<edge from-layer="2003" from-port="2" to-layer="2004" to-port="1" />
		<edge from-layer="2004" from-port="2" to-layer="2005" to-port="0" />
		<edge from-layer="2005" from-port="1" to-layer="2008" to-port="0" />
		<edge from-layer="2006" from-port="0" to-layer="2007" to-port="0" />
		<edge from-layer="2007" from-port="1" to-layer="2008" to-port="1" />
		<edge from-layer="2008" from-port="2" to-layer="2011" to-port="0" />
		<edge from-layer="2009" from-port="0" to-layer="2010" to-port="0" />
		<edge from-layer="2010" from-port="1" to-layer="2011" to-port="1" />
		<edge from-layer="2011" from-port="2" to-layer="2012" to-port="0" />
		<edge from-layer="2012" from-port="1" to-layer="2013" to-port="1" />
		<edge from-layer="2013" from-port="2" to-layer="2021" to-port="0" />
		<edge from-layer="2014" from-port="0" to-layer="2015" to-port="0" />
		<edge from-layer="2015" from-port="1" to-layer="2016" to-port="1" />
		<edge from-layer="2016" from-port="2" to-layer="2019" to-port="0" />
		<edge from-layer="2017" from-port="0" to-layer="2018" to-port="0" />
		<edge from-layer="2018" from-port="1" to-layer="2019" to-port="1" />
		<edge from-layer="2019" from-port="2" to-layer="2020" to-port="0" />
		<edge from-layer="2020" from-port="1" to-layer="2021" to-port="1" />
		<edge from-layer="2021" from-port="2" to-layer="2024" to-port="0" />
		<edge from-layer="2022" from-port="0" to-layer="2023" to-port="0" />
		<edge from-layer="2023" from-port="1" to-layer="2024" to-port="1" />
		<edge from-layer="2024" from-port="2" to-layer="2027" to-port="0" />
		<edge from-layer="2025" from-port="0" to-layer="2026" to-port="0" />
		<edge from-layer="2026" from-port="1" to-layer="2027" to-port="1" />
		<edge from-layer="2027" from-port="2" to-layer="2028" to-port="0" />
		<edge from-layer="2028" from-port="1" to-layer="2031" to-port="0" />
		<edge from-layer="2029" from-port="0" to-layer="2030" to-port="0" />
		<edge from-layer="2030" from-port="1" to-layer="2031" to-port="1" />
		<edge from-layer="2031" from-port="2" to-layer="2034" to-port="0" />
		<edge from-layer="2032" from-port="0" to-layer="2033" to-port="0" />
		<edge from-layer="2033" from-port="1" to-layer="2034" to-port="1" />
		<edge from-layer="2034" from-port="2" to-layer="2035" to-port="0" />
		<edge from-layer="2035" from-port="1" to-layer="2038" to-port="0" />
		<edge from-layer="2035" from-port="1" to-layer="2067" to-port="0" />
		<edge from-layer="2035" from-port="1" to-layer="2087" to-port="2" />
		<edge from-layer="2036" from-port="0" to-layer="2037" to-port="0" />
		<edge from-layer="2037" from-port="1" to-layer="2038" to-port="1" />
		<edge from-layer="2038" from-port="2" to-layer="2041" to-port="0" />
		<edge from-layer="2039" from-port="0" to-layer="2040" to-port="0" />
		<edge from-layer="2040" from-port="1" to-layer="2041" to-port="1" />
		<edge from-layer="2041" from-port="2" to-layer="2042" to-port="0" />
		<edge from-layer="2042" from-port="1" to-layer="2045" to-port="0" />
		<edge from-layer="2042" from-port="1" to-layer="2051" to-port="0" />
		<edge from-layer="2042" from-port="1" to-layer="2064" to-port="0" />
		<edge from-layer="2043" from-port="0" to-layer="2044" to-port="0" />
		<edge from-layer="2044" from-port="1" to-layer="2045" to-port="1" />
		<edge from-layer="2045" from-port="2" to-layer="2048" to-port="0" />
		<edge from-layer="2046" from-port="0" to-layer="2047" to-port="0" />
		<edge from-layer="2047" from-port="1" to-layer="2048" to-port="1" />
		<edge from-layer="2048" from-port="2" to-layer="2055" to-port="0" />
		<edge from-layer="2049" from-port="0" to-layer="2050" to-port="0" />
		<edge from-layer="2050" from-port="1" to-layer="2051" to-port="1" />
		<edge from-layer="2051" from-port="2" to-layer="2054" to-port="0" />
		<edge from-layer="2052" from-port="0" to-layer="2053" to-port="0" />
		<edge from-layer="2053" from-port="1" to-layer="2054" to-port="1" />
		<edge from-layer="2054" from-port="2" to-layer="2055" to-port="1" />
		<edge from-layer="2055" from-port="2" to-layer="2056" to-port="0" />
		<edge from-layer="2056" from-port="1" to-layer="2059" to-port="0" />
		<edge from-layer="2057" from-port="0" to-layer="2058" to-port="0" />
		<edge from-layer="2058" from-port="1" to-layer="2059" to-port="1" />
		<edge from-layer="2059" from-port="2" to-layer="2062" to-port="0" />
		<edge from-layer="2060" from-port="0" to-layer="2061" to-port="0" />
		<edge from-layer="2061" from-port="1" to-layer="2062" to-port="1" />
		<edge from-layer="2062" from-port="2" to-layer="2063" to-port="0" />
		<edge from-layer="2063" from-port="1" to-layer="2064" to-port="1" />
		<edge from-layer="2064" from-port="2" to-layer="2072" to-port="0" />
		<edge from-layer="2065" from-port="0" to-layer="2066" to-port="0" />
		<edge from-layer="2066" from-port="1" to-layer="2067" to-port="1" />
		<edge from-layer="2067" from-port="2" to-layer="2070" to-port="0" />
		<edge from-layer="2068" from-port="0" to-layer="2069" to-port="0" />
		<edge from-layer="2069" from-port="1" to-layer="2070" to-port="1" />
		<edge from-layer="2070" from-port="2" to-layer="2071" to-port="0" />
		<edge from-layer="2071" from-port="1" to-layer="2072" to-port="1" />
		<edge from-layer="2072" from-port="2" to-layer="2075" to-port="0" />
		<edge from-layer="2073" from-port="0" to-layer="2074" to-port="0" />
		<edge from-layer="2074" from-port="1" to-layer="2075" to-port="1" />
		<edge from-layer="2075" from-port="2" to-layer="2078" to-port="0" />
		<edge from-layer="2076" from-port="0" to-layer="2077" to-port="0" />
		<edge from-layer="2077" from-port="1" to-layer="2078" to-port="1" />
		<edge from-layer="2078" from-port="2" to-layer="2079" to-port="0" />
		<edge from-layer="2079" from-port="1" to-layer="2082" to-port="0" />
		<edge from-layer="2080" from-port="0" to-layer="2081" to-port="0" />
		<edge from-layer="2081" from-port="1" to-layer="2082" to-port="1" />
		<edge from-layer="2082" from-port="2" to-layer="2085" to-port="0" />
		<edge from-layer="2083" from-port="0" to-layer="2084" to-port="0" />
		<edge from-layer="2084" from-port="1" to-layer="2085" to-port="1" />
		<edge from-layer="2085" from-port="2" to-layer="2086" to-port="0" />
		<edge from-layer="2086" from-port="1" to-layer="2087" to-port="3" />
		<edge from-layer="2087" from-port="4" to-layer="2090" to-port="0" />
		<edge from-layer="2088" from-port="0" to-layer="2089" to-port="0" />
		<edge from-layer="2089" from-port="1" to-layer="2090" to-port="1" />
		<edge from-layer="2090" from-port="2" to-layer="2093" to-port="0" />
		<edge from-layer="2091" from-port="0" to-layer="2092" to-port="0" />
		<edge from-layer="2092" from-port="1" to-layer="2093" to-port="1" />
		<edge from-layer="2093" from-port="2" to-layer="2094" to-port="0" />
		<edge from-layer="2094" from-port="1" to-layer="2095" to-port="0" />
		<edge from-layer="2094" from-port="1" to-layer="2343" to-port="0" />
		<edge from-layer="2094" from-port="1" to-layer="2323" to-port="0" />
		<edge from-layer="2095" from-port="1" to-layer="2099" to-port="0" />
		<edge from-layer="2095" from-port="1" to-layer="2110" to-port="0" />
		<edge from-layer="2095" from-port="1" to-layer="2125" to-port="0" />
		<edge from-layer="2096" from-port="0" to-layer="2110" to-port="1" />
		<edge from-layer="2097" from-port="0" to-layer="2108" to-port="0" />
		<edge from-layer="2098" from-port="0" to-layer="2108" to-port="1" />
		<edge from-layer="2099" from-port="1" to-layer="2102" to-port="0" />
		<edge from-layer="2100" from-port="0" to-layer="2102" to-port="1" />
		<edge from-layer="2101" from-port="0" to-layer="2102" to-port="2" />
		<edge from-layer="2102" from-port="3" to-layer="2104" to-port="0" />
		<edge from-layer="2103" from-port="0" to-layer="2104" to-port="1" />
		<edge from-layer="2104" from-port="2" to-layer="2106" to-port="0" />
		<edge from-layer="2105" from-port="0" to-layer="2106" to-port="1" />
		<edge from-layer="2106" from-port="2" to-layer="2108" to-port="2" />
		<edge from-layer="2106" from-port="2" to-layer="2121" to-port="0" />
		<edge from-layer="2107" from-port="0" to-layer="2108" to-port="3" />
		<edge from-layer="2108" from-port="4" to-layer="2110" to-port="2" />
		<edge from-layer="2108" from-port="4" to-layer="2125" to-port="1" />
		<edge from-layer="2109" from-port="0" to-layer="2110" to-port="3" />
		<edge from-layer="2110" from-port="4" to-layer="2113" to-port="0" />
		<edge from-layer="2111" from-port="0" to-layer="2112" to-port="0" />
		<edge from-layer="2112" from-port="1" to-layer="2113" to-port="1" />
		<edge from-layer="2113" from-port="2" to-layer="2116" to-port="0" />
		<edge from-layer="2114" from-port="0" to-layer="2115" to-port="0" />
		<edge from-layer="2115" from-port="1" to-layer="2116" to-port="1" />
		<edge from-layer="2116" from-port="2" to-layer="2117" to-port="0" />
		<edge from-layer="2117" from-port="1" to-layer="2134" to-port="0" />
		<edge from-layer="2118" from-port="0" to-layer="2123" to-port="0" />
		<edge from-layer="2119" from-port="0" to-layer="2123" to-port="1" />
		<edge from-layer="2120" from-port="0" to-layer="2121" to-port="1" />
		<edge from-layer="2121" from-port="2" to-layer="2123" to-port="2" />
		<edge from-layer="2122" from-port="0" to-layer="2123" to-port="3" />
		<edge from-layer="2123" from-port="4" to-layer="2125" to-port="2" />
		<edge from-layer="2124" from-port="0" to-layer="2125" to-port="3" />
		<edge from-layer="2125" from-port="4" to-layer="2126" to-port="0" />
		<edge from-layer="2126" from-port="1" to-layer="2129" to-port="0" />
		<edge from-layer="2127" from-port="0" to-layer="2128" to-port="0" />
		<edge from-layer="2128" from-port="1" to-layer="2129" to-port="1" />
		<edge from-layer="2129" from-port="2" to-layer="2132" to-port="0" />
		<edge from-layer="2130" from-port="0" to-layer="2131" to-port="0" />
		<edge from-layer="2131" from-port="1" to-layer="2132" to-port="1" />
		<edge from-layer="2132" from-port="2" to-layer="2133" to-port="0" />
		<edge from-layer="2133" from-port="1" to-layer="2134" to-port="1" />
		<edge from-layer="2134" from-port="2" to-layer="2136" to-port="0" />
		<edge from-layer="2135" from-port="0" to-layer="2136" to-port="1" />
		<edge from-layer="2136" from-port="2" to-layer="2137" to-port="1" />
		<edge from-layer="2137" from-port="2" to-layer="2138" to-port="0" />
		<edge from-layer="2138" from-port="2" to-layer="2141" to-port="0" />
		<edge from-layer="2139" from-port="0" to-layer="2140" to-port="0" />
		<edge from-layer="2140" from-port="1" to-layer="2141" to-port="1" />
		<edge from-layer="2141" from-port="2" to-layer="2144" to-port="0" />
		<edge from-layer="2142" from-port="0" to-layer="2143" to-port="0" />
		<edge from-layer="2143" from-port="1" to-layer="2144" to-port="1" />
		<edge from-layer="2144" from-port="2" to-layer="2145" to-port="0" />
		<edge from-layer="2145" from-port="1" to-layer="2149" to-port="0" />
		<edge from-layer="2145" from-port="1" to-layer="2160" to-port="0" />
		<edge from-layer="2145" from-port="1" to-layer="2168" to-port="0" />
		<edge from-layer="2146" from-port="0" to-layer="2160" to-port="1" />
		<edge from-layer="2147" from-port="0" to-layer="2158" to-port="0" />
		<edge from-layer="2148" from-port="0" to-layer="2158" to-port="1" />
		<edge from-layer="2149" from-port="1" to-layer="2152" to-port="0" />
		<edge from-layer="2150" from-port="0" to-layer="2152" to-port="1" />
		<edge from-layer="2151" from-port="0" to-layer="2152" to-port="2" />
		<edge from-layer="2152" from-port="3" to-layer="2154" to-port="0" />
		<edge from-layer="2153" from-port="0" to-layer="2154" to-port="1" />
		<edge from-layer="2154" from-port="2" to-layer="2156" to-port="0" />
		<edge from-layer="2155" from-port="0" to-layer="2156" to-port="1" />
		<edge from-layer="2156" from-port="2" to-layer="2158" to-port="2" />
		<edge from-layer="2156" from-port="2" to-layer="2164" to-port="0" />
		<edge from-layer="2157" from-port="0" to-layer="2158" to-port="3" />
		<edge from-layer="2158" from-port="4" to-layer="2168" to-port="1" />
		<edge from-layer="2158" from-port="4" to-layer="2160" to-port="2" />
		<edge from-layer="2159" from-port="0" to-layer="2160" to-port="3" />
		<edge from-layer="2160" from-port="4" to-layer="2271" to-port="0" />
		<edge from-layer="2161" from-port="0" to-layer="2166" to-port="0" />
		<edge from-layer="2162" from-port="0" to-layer="2166" to-port="1" />
		<edge from-layer="2163" from-port="0" to-layer="2164" to-port="1" />
		<edge from-layer="2164" from-port="2" to-layer="2166" to-port="2" />
		<edge from-layer="2165" from-port="0" to-layer="2166" to-port="3" />
		<edge from-layer="2166" from-port="4" to-layer="2168" to-port="2" />
		<edge from-layer="2167" from-port="0" to-layer="2168" to-port="3" />
		<edge from-layer="2168" from-port="4" to-layer="2171" to-port="0" />
		<edge from-layer="2168" from-port="4" to-layer="2200" to-port="0" />
		<edge from-layer="2168" from-port="4" to-layer="2271" to-port="1" />
		<edge from-layer="2169" from-port="0" to-layer="2170" to-port="0" />
		<edge from-layer="2170" from-port="1" to-layer="2171" to-port="1" />
		<edge from-layer="2171" from-port="2" to-layer="2174" to-port="0" />
		<edge from-layer="2172" from-port="0" to-layer="2173" to-port="0" />
		<edge from-layer="2173" from-port="1" to-layer="2174" to-port="1" />
		<edge from-layer="2174" from-port="2" to-layer="2175" to-port="0" />
		<edge from-layer="2175" from-port="1" to-layer="2197" to-port="0" />
		<edge from-layer="2175" from-port="1" to-layer="2178" to-port="0" />
		<edge from-layer="2175" from-port="1" to-layer="2184" to-port="0" />
		<edge from-layer="2176" from-port="0" to-layer="2177" to-port="0" />
		<edge from-layer="2177" from-port="1" to-layer="2178" to-port="1" />
		<edge from-layer="2178" from-port="2" to-layer="2181" to-port="0" />
		<edge from-layer="2179" from-port="0" to-layer="2180" to-port="0" />
		<edge from-layer="2180" from-port="1" to-layer="2181" to-port="1" />
		<edge from-layer="2181" from-port="2" to-layer="2188" to-port="0" />
		<edge from-layer="2182" from-port="0" to-layer="2183" to-port="0" />
		<edge from-layer="2183" from-port="1" to-layer="2184" to-port="1" />
		<edge from-layer="2184" from-port="2" to-layer="2187" to-port="0" />
		<edge from-layer="2185" from-port="0" to-layer="2186" to-port="0" />
		<edge from-layer="2186" from-port="1" to-layer="2187" to-port="1" />
		<edge from-layer="2187" from-port="2" to-layer="2188" to-port="1" />
		<edge from-layer="2188" from-port="2" to-layer="2189" to-port="0" />
		<edge from-layer="2189" from-port="1" to-layer="2192" to-port="0" />
		<edge from-layer="2190" from-port="0" to-layer="2191" to-port="0" />
		<edge from-layer="2191" from-port="1" to-layer="2192" to-port="1" />
		<edge from-layer="2192" from-port="2" to-layer="2195" to-port="0" />
		<edge from-layer="2193" from-port="0" to-layer="2194" to-port="0" />
		<edge from-layer="2194" from-port="1" to-layer="2195" to-port="1" />
		<edge from-layer="2195" from-port="2" to-layer="2196" to-port="0" />
		<edge from-layer="2196" from-port="1" to-layer="2197" to-port="1" />
		<edge from-layer="2197" from-port="2" to-layer="2205" to-port="0" />
		<edge from-layer="2198" from-port="0" to-layer="2199" to-port="0" />
		<edge from-layer="2199" from-port="1" to-layer="2200" to-port="1" />
		<edge from-layer="2200" from-port="2" to-layer="2203" to-port="0" />
		<edge from-layer="2201" from-port="0" to-layer="2202" to-port="0" />
		<edge from-layer="2202" from-port="1" to-layer="2203" to-port="1" />
		<edge from-layer="2203" from-port="2" to-layer="2204" to-port="0" />
		<edge from-layer="2204" from-port="1" to-layer="2205" to-port="1" />
		<edge from-layer="2205" from-port="2" to-layer="2208" to-port="0" />
		<edge from-layer="2206" from-port="0" to-layer="2207" to-port="0" />
		<edge from-layer="2207" from-port="1" to-layer="2208" to-port="1" />
		<edge from-layer="2208" from-port="2" to-layer="2211" to-port="0" />
		<edge from-layer="2209" from-port="0" to-layer="2210" to-port="0" />
		<edge from-layer="2210" from-port="1" to-layer="2211" to-port="1" />
		<edge from-layer="2211" from-port="2" to-layer="2212" to-port="0" />
		<edge from-layer="2212" from-port="1" to-layer="2215" to-port="0" />
		<edge from-layer="2213" from-port="0" to-layer="2214" to-port="0" />
		<edge from-layer="2214" from-port="1" to-layer="2215" to-port="1" />
		<edge from-layer="2215" from-port="2" to-layer="2218" to-port="0" />
		<edge from-layer="2216" from-port="0" to-layer="2217" to-port="0" />
		<edge from-layer="2217" from-port="1" to-layer="2218" to-port="1" />
		<edge from-layer="2218" from-port="2" to-layer="2219" to-port="0" />
		<edge from-layer="2219" from-port="1" to-layer="2271" to-port="2" />
		<edge from-layer="2219" from-port="1" to-layer="2251" to-port="0" />
		<edge from-layer="2219" from-port="1" to-layer="2222" to-port="0" />
		<edge from-layer="2220" from-port="0" to-layer="2221" to-port="0" />
		<edge from-layer="2221" from-port="1" to-layer="2222" to-port="1" />
		<edge from-layer="2222" from-port="2" to-layer="2225" to-port="0" />
		<edge from-layer="2223" from-port="0" to-layer="2224" to-port="0" />
		<edge from-layer="2224" from-port="1" to-layer="2225" to-port="1" />
		<edge from-layer="2225" from-port="2" to-layer="2226" to-port="0" />
		<edge from-layer="2226" from-port="1" to-layer="2235" to-port="0" />
		<edge from-layer="2226" from-port="1" to-layer="2229" to-port="0" />
		<edge from-layer="2226" from-port="1" to-layer="2248" to-port="0" />
		<edge from-layer="2227" from-port="0" to-layer="2228" to-port="0" />
		<edge from-layer="2228" from-port="1" to-layer="2229" to-port="1" />
		<edge from-layer="2229" from-port="2" to-layer="2232" to-port="0" />
		<edge from-layer="2230" from-port="0" to-layer="2231" to-port="0" />
		<edge from-layer="2231" from-port="1" to-layer="2232" to-port="1" />
		<edge from-layer="2232" from-port="2" to-layer="2239" to-port="0" />
		<edge from-layer="2233" from-port="0" to-layer="2234" to-port="0" />
		<edge from-layer="2234" from-port="1" to-layer="2235" to-port="1" />
		<edge from-layer="2235" from-port="2" to-layer="2238" to-port="0" />
		<edge from-layer="2236" from-port="0" to-layer="2237" to-port="0" />
		<edge from-layer="2237" from-port="1" to-layer="2238" to-port="1" />
		<edge from-layer="2238" from-port="2" to-layer="2239" to-port="1" />
		<edge from-layer="2239" from-port="2" to-layer="2240" to-port="0" />
		<edge from-layer="2240" from-port="1" to-layer="2243" to-port="0" />
		<edge from-layer="2241" from-port="0" to-layer="2242" to-port="0" />
		<edge from-layer="2242" from-port="1" to-layer="2243" to-port="1" />
		<edge from-layer="2243" from-port="2" to-layer="2246" to-port="0" />
		<edge from-layer="2244" from-port="0" to-layer="2245" to-port="0" />
		<edge from-layer="2245" from-port="1" to-layer="2246" to-port="1" />
		<edge from-layer="2246" from-port="2" to-layer="2247" to-port="0" />
		<edge from-layer="2247" from-port="1" to-layer="2248" to-port="1" />
		<edge from-layer="2248" from-port="2" to-layer="2256" to-port="0" />
		<edge from-layer="2249" from-port="0" to-layer="2250" to-port="0" />
		<edge from-layer="2250" from-port="1" to-layer="2251" to-port="1" />
		<edge from-layer="2251" from-port="2" to-layer="2254" to-port="0" />
		<edge from-layer="2252" from-port="0" to-layer="2253" to-port="0" />
		<edge from-layer="2253" from-port="1" to-layer="2254" to-port="1" />
		<edge from-layer="2254" from-port="2" to-layer="2255" to-port="0" />
		<edge from-layer="2255" from-port="1" to-layer="2256" to-port="1" />
		<edge from-layer="2256" from-port="2" to-layer="2259" to-port="0" />
		<edge from-layer="2257" from-port="0" to-layer="2258" to-port="0" />
		<edge from-layer="2258" from-port="1" to-layer="2259" to-port="1" />
		<edge from-layer="2259" from-port="2" to-layer="2262" to-port="0" />
		<edge from-layer="2260" from-port="0" to-layer="2261" to-port="0" />
		<edge from-layer="2261" from-port="1" to-layer="2262" to-port="1" />
		<edge from-layer="2262" from-port="2" to-layer="2263" to-port="0" />
		<edge from-layer="2263" from-port="1" to-layer="2266" to-port="0" />
		<edge from-layer="2264" from-port="0" to-layer="2265" to-port="0" />
		<edge from-layer="2265" from-port="1" to-layer="2266" to-port="1" />
		<edge from-layer="2266" from-port="2" to-layer="2269" to-port="0" />
		<edge from-layer="2267" from-port="0" to-layer="2268" to-port="0" />
		<edge from-layer="2268" from-port="1" to-layer="2269" to-port="1" />
		<edge from-layer="2269" from-port="2" to-layer="2270" to-port="0" />
		<edge from-layer="2270" from-port="1" to-layer="2271" to-port="3" />
		<edge from-layer="2271" from-port="4" to-layer="2274" to-port="0" />
		<edge from-layer="2272" from-port="0" to-layer="2273" to-port="0" />
		<edge from-layer="2273" from-port="1" to-layer="2274" to-port="1" />
		<edge from-layer="2274" from-port="2" to-layer="2277" to-port="0" />
		<edge from-layer="2275" from-port="0" to-layer="2276" to-port="0" />
		<edge from-layer="2276" from-port="1" to-layer="2277" to-port="1" />
		<edge from-layer="2277" from-port="2" to-layer="2278" to-port="0" />
		<edge from-layer="2278" from-port="1" to-layer="2281" to-port="0" />
		<edge from-layer="2278" from-port="1" to-layer="2301" to-port="0" />
		<edge from-layer="2279" from-port="0" to-layer="2280" to-port="0" />
		<edge from-layer="2280" from-port="1" to-layer="2281" to-port="1" />
		<edge from-layer="2281" from-port="2" to-layer="2284" to-port="0" />
		<edge from-layer="2282" from-port="0" to-layer="2283" to-port="0" />
		<edge from-layer="2283" from-port="1" to-layer="2284" to-port="1" />
		<edge from-layer="2284" from-port="2" to-layer="2285" to-port="0" />
		<edge from-layer="2285" from-port="1" to-layer="2288" to-port="0" />
		<edge from-layer="2286" from-port="0" to-layer="2287" to-port="0" />
		<edge from-layer="2287" from-port="1" to-layer="2288" to-port="1" />
		<edge from-layer="2288" from-port="2" to-layer="2291" to-port="0" />
		<edge from-layer="2289" from-port="0" to-layer="2290" to-port="0" />
		<edge from-layer="2290" from-port="1" to-layer="2291" to-port="1" />
		<edge from-layer="2291" from-port="2" to-layer="2292" to-port="0" />
		<edge from-layer="2292" from-port="1" to-layer="2295" to-port="0" />
		<edge from-layer="2293" from-port="0" to-layer="2294" to-port="0" />
		<edge from-layer="2294" from-port="1" to-layer="2295" to-port="1" />
		<edge from-layer="2295" from-port="2" to-layer="2298" to-port="0" />
		<edge from-layer="2296" from-port="0" to-layer="2297" to-port="0" />
		<edge from-layer="2297" from-port="1" to-layer="2298" to-port="1" />
		<edge from-layer="2298" from-port="2" to-layer="2319" to-port="0" />
		<edge from-layer="2299" from-port="0" to-layer="2300" to-port="0" />
		<edge from-layer="2300" from-port="1" to-layer="2301" to-port="1" />
		<edge from-layer="2301" from-port="2" to-layer="2304" to-port="0" />
		<edge from-layer="2302" from-port="0" to-layer="2303" to-port="0" />
		<edge from-layer="2303" from-port="1" to-layer="2304" to-port="1" />
		<edge from-layer="2304" from-port="2" to-layer="2305" to-port="0" />
		<edge from-layer="2305" from-port="1" to-layer="2308" to-port="0" />
		<edge from-layer="2306" from-port="0" to-layer="2307" to-port="0" />
		<edge from-layer="2307" from-port="1" to-layer="2308" to-port="1" />
		<edge from-layer="2308" from-port="2" to-layer="2311" to-port="0" />
		<edge from-layer="2309" from-port="0" to-layer="2310" to-port="0" />
		<edge from-layer="2310" from-port="1" to-layer="2311" to-port="1" />
		<edge from-layer="2311" from-port="2" to-layer="2312" to-port="0" />
		<edge from-layer="2312" from-port="1" to-layer="2315" to-port="0" />
		<edge from-layer="2313" from-port="0" to-layer="2314" to-port="0" />
		<edge from-layer="2314" from-port="1" to-layer="2315" to-port="1" />
		<edge from-layer="2315" from-port="2" to-layer="2318" to-port="0" />
		<edge from-layer="2316" from-port="0" to-layer="2317" to-port="0" />
		<edge from-layer="2317" from-port="1" to-layer="2318" to-port="1" />
		<edge from-layer="2318" from-port="2" to-layer="2319" to-port="1" />
		<edge from-layer="2319" from-port="2" to-layer="2320" to-port="0" />
		<edge from-layer="2319" from-port="2" to-layer="2453" to-port="0" />
		<edge from-layer="2321" from-port="0" to-layer="2322" to-port="0" />
		<edge from-layer="2322" from-port="1" to-layer="2323" to-port="1" />
		<edge from-layer="2323" from-port="2" to-layer="2326" to-port="0" />
		<edge from-layer="2324" from-port="0" to-layer="2325" to-port="0" />
		<edge from-layer="2325" from-port="1" to-layer="2326" to-port="1" />
		<edge from-layer="2326" from-port="2" to-layer="2327" to-port="0" />
		<edge from-layer="2327" from-port="1" to-layer="2330" to-port="0" />
		<edge from-layer="2328" from-port="0" to-layer="2329" to-port="0" />
		<edge from-layer="2329" from-port="1" to-layer="2330" to-port="1" />
		<edge from-layer="2330" from-port="2" to-layer="2333" to-port="0" />
		<edge from-layer="2331" from-port="0" to-layer="2332" to-port="0" />
		<edge from-layer="2332" from-port="1" to-layer="2333" to-port="1" />
		<edge from-layer="2333" from-port="2" to-layer="2334" to-port="0" />
		<edge from-layer="2334" from-port="1" to-layer="2337" to-port="0" />
		<edge from-layer="2335" from-port="0" to-layer="2336" to-port="0" />
		<edge from-layer="2336" from-port="1" to-layer="2337" to-port="1" />
		<edge from-layer="2337" from-port="2" to-layer="2340" to-port="0" />
		<edge from-layer="2338" from-port="0" to-layer="2339" to-port="0" />
		<edge from-layer="2339" from-port="1" to-layer="2340" to-port="1" />
		<edge from-layer="2340" from-port="2" to-layer="2361" to-port="0" />
		<edge from-layer="2341" from-port="0" to-layer="2342" to-port="0" />
		<edge from-layer="2342" from-port="1" to-layer="2343" to-port="1" />
		<edge from-layer="2343" from-port="2" to-layer="2346" to-port="0" />
		<edge from-layer="2344" from-port="0" to-layer="2345" to-port="0" />
		<edge from-layer="2345" from-port="1" to-layer="2346" to-port="1" />
		<edge from-layer="2346" from-port="2" to-layer="2347" to-port="0" />
		<edge from-layer="2347" from-port="1" to-layer="2350" to-port="0" />
		<edge from-layer="2348" from-port="0" to-layer="2349" to-port="0" />
		<edge from-layer="2349" from-port="1" to-layer="2350" to-port="1" />
		<edge from-layer="2350" from-port="2" to-layer="2353" to-port="0" />
		<edge from-layer="2351" from-port="0" to-layer="2352" to-port="0" />
		<edge from-layer="2352" from-port="1" to-layer="2353" to-port="1" />
		<edge from-layer="2353" from-port="2" to-layer="2354" to-port="0" />
		<edge from-layer="2354" from-port="1" to-layer="2357" to-port="0" />
		<edge from-layer="2355" from-port="0" to-layer="2356" to-port="0" />
		<edge from-layer="2356" from-port="1" to-layer="2357" to-port="1" />
		<edge from-layer="2357" from-port="2" to-layer="2360" to-port="0" />
		<edge from-layer="2358" from-port="0" to-layer="2359" to-port="0" />
		<edge from-layer="2359" from-port="1" to-layer="2360" to-port="1" />
		<edge from-layer="2360" from-port="2" to-layer="2361" to-port="1" />
		<edge from-layer="2361" from-port="2" to-layer="2362" to-port="0" />
		<edge from-layer="2361" from-port="2" to-layer="2451" to-port="0" />
		<edge from-layer="2363" from-port="0" to-layer="2364" to-port="0" />
		<edge from-layer="2364" from-port="1" to-layer="2365" to-port="1" />
		<edge from-layer="2365" from-port="2" to-layer="2368" to-port="0" />
		<edge from-layer="2366" from-port="0" to-layer="2367" to-port="0" />
		<edge from-layer="2367" from-port="1" to-layer="2368" to-port="1" />
		<edge from-layer="2368" from-port="2" to-layer="2369" to-port="0" />
		<edge from-layer="2369" from-port="1" to-layer="2372" to-port="0" />
		<edge from-layer="2370" from-port="0" to-layer="2371" to-port="0" />
		<edge from-layer="2371" from-port="1" to-layer="2372" to-port="1" />
		<edge from-layer="2372" from-port="2" to-layer="2375" to-port="0" />
		<edge from-layer="2373" from-port="0" to-layer="2374" to-port="0" />
		<edge from-layer="2374" from-port="1" to-layer="2375" to-port="1" />
		<edge from-layer="2375" from-port="2" to-layer="2376" to-port="0" />
		<edge from-layer="2376" from-port="1" to-layer="2379" to-port="0" />
		<edge from-layer="2377" from-port="0" to-layer="2378" to-port="0" />
		<edge from-layer="2378" from-port="1" to-layer="2379" to-port="1" />
		<edge from-layer="2379" from-port="2" to-layer="2382" to-port="0" />
		<edge from-layer="2380" from-port="0" to-layer="2381" to-port="0" />
		<edge from-layer="2381" from-port="1" to-layer="2382" to-port="1" />
		<edge from-layer="2382" from-port="2" to-layer="2403" to-port="0" />
		<edge from-layer="2383" from-port="0" to-layer="2384" to-port="0" />
		<edge from-layer="2384" from-port="1" to-layer="2385" to-port="1" />
		<edge from-layer="2385" from-port="2" to-layer="2388" to-port="0" />
		<edge from-layer="2386" from-port="0" to-layer="2387" to-port="0" />
		<edge from-layer="2387" from-port="1" to-layer="2388" to-port="1" />
		<edge from-layer="2388" from-port="2" to-layer="2389" to-port="0" />
		<edge from-layer="2389" from-port="1" to-layer="2392" to-port="0" />
		<edge from-layer="2390" from-port="0" to-layer="2391" to-port="0" />
		<edge from-layer="2391" from-port="1" to-layer="2392" to-port="1" />
		<edge from-layer="2392" from-port="2" to-layer="2395" to-port="0" />
		<edge from-layer="2393" from-port="0" to-layer="2394" to-port="0" />
		<edge from-layer="2394" from-port="1" to-layer="2395" to-port="1" />
		<edge from-layer="2395" from-port="2" to-layer="2396" to-port="0" />
		<edge from-layer="2396" from-port="1" to-layer="2399" to-port="0" />
		<edge from-layer="2397" from-port="0" to-layer="2398" to-port="0" />
		<edge from-layer="2398" from-port="1" to-layer="2399" to-port="1" />
		<edge from-layer="2399" from-port="2" to-layer="2402" to-port="0" />
		<edge from-layer="2400" from-port="0" to-layer="2401" to-port="0" />
		<edge from-layer="2401" from-port="1" to-layer="2402" to-port="1" />
		<edge from-layer="2402" from-port="2" to-layer="2403" to-port="1" />
		<edge from-layer="2403" from-port="2" to-layer="2404" to-port="0" />
		<edge from-layer="2403" from-port="2" to-layer="2449" to-port="0" />
		<edge from-layer="2405" from-port="0" to-layer="2406" to-port="0" />
		<edge from-layer="2406" from-port="1" to-layer="2430" to-port="0" />
		<edge from-layer="2407" from-port="0" to-layer="2408" to-port="1" />
		<edge from-layer="2408" from-port="2" to-layer="2413" to-port="0" />
		<edge from-layer="2409" from-port="0" to-layer="2410" to-port="1" />
		<edge from-layer="2410" from-port="2" to-layer="2413" to-port="1" />
		<edge from-layer="2411" from-port="0" to-layer="2412" to-port="1" />
		<edge from-layer="2412" from-port="2" to-layer="2413" to-port="2" />
		<edge from-layer="2413" from-port="3" to-layer="2416" to-port="0" />
		<edge from-layer="2414" from-port="0" to-layer="2416" to-port="1" />
		<edge from-layer="2415" from-port="0" to-layer="2416" to-port="2" />
		<edge from-layer="2415" from-port="0" to-layer="2456" to-port="2" />
		<edge from-layer="2416" from-port="3" to-layer="2418" to-port="0" />
		<edge from-layer="2416" from-port="4" to-layer="2443" to-port="0" />
		<edge from-layer="2417" from-port="0" to-layer="2418" to-port="1" />
		<edge from-layer="2418" from-port="2" to-layer="2420" to-port="0" />
		<edge from-layer="2419" from-port="0" to-layer="2420" to-port="1" />
		<edge from-layer="2420" from-port="2" to-layer="2421" to-port="0" />
		<edge from-layer="2421" from-port="1" to-layer="2424" to-port="0" />
		<edge from-layer="2422" from-port="0" to-layer="2423" to-port="0" />
		<edge from-layer="2423" from-port="1" to-layer="2424" to-port="1" />
		<edge from-layer="2423" from-port="1" to-layer="2462" to-port="1" />
		<edge from-layer="2424" from-port="2" to-layer="2426" to-port="0" />
		<edge from-layer="2425" from-port="0" to-layer="2426" to-port="1" />
		<edge from-layer="2426" from-port="2" to-layer="2429" to-port="0" />
		<edge from-layer="2427" from-port="0" to-layer="2429" to-port="1" />
		<edge from-layer="2428" from-port="0" to-layer="2429" to-port="2" />
		<edge from-layer="2429" from-port="3" to-layer="2430" to-port="1" />
		<edge from-layer="2429" from-port="4" to-layer="2433" to-port="1" />
		<edge from-layer="2430" from-port="2" to-layer="2434" to-port="0" />
		<edge from-layer="2430" from-port="2" to-layer="2438" to-port="1" />
		<edge from-layer="2431" from-port="0" to-layer="2432" to-port="0" />
		<edge from-layer="2432" from-port="1" to-layer="2433" to-port="0" />
		<edge from-layer="2433" from-port="2" to-layer="2434" to-port="1" />
		<edge from-layer="2433" from-port="2" to-layer="2438" to-port="0" />
		<edge from-layer="2434" from-port="2" to-layer="2437" to-port="0" />
		<edge from-layer="2435" from-port="0" to-layer="2436" to-port="0" />
		<edge from-layer="2436" from-port="1" to-layer="2437" to-port="1" />
		<edge from-layer="2437" from-port="2" to-layer="2439" to-port="0" />
		<edge from-layer="2438" from-port="2" to-layer="2439" to-port="1" />
		<edge from-layer="2439" from-port="2" to-layer="2442" to-port="0" />
		<edge from-layer="2440" from-port="0" to-layer="2441" to-port="0" />
		<edge from-layer="2441" from-port="1" to-layer="2442" to-port="1" />
		<edge from-layer="2442" from-port="2" to-layer="2444" to-port="0" />
		<edge from-layer="2443" from-port="1" to-layer="2444" to-port="1" />
		<edge from-layer="2444" from-port="2" to-layer="2445" to-port="0" />
		<edge from-layer="2446" from-port="0" to-layer="2447" to-port="0" />
		<edge from-layer="2447" from-port="1" to-layer="2468" to-port="0" />
		<edge from-layer="2448" from-port="0" to-layer="2449" to-port="1" />
		<edge from-layer="2449" from-port="2" to-layer="2454" to-port="0" />
		<edge from-layer="2450" from-port="0" to-layer="2451" to-port="1" />
		<edge from-layer="2451" from-port="2" to-layer="2454" to-port="1" />
		<edge from-layer="2452" from-port="0" to-layer="2453" to-port="1" />
		<edge from-layer="2453" from-port="2" to-layer="2454" to-port="2" />
		<edge from-layer="2454" from-port="3" to-layer="2456" to-port="0" />
		<edge from-layer="2455" from-port="0" to-layer="2456" to-port="1" />
		<edge from-layer="2456" from-port="3" to-layer="2458" to-port="0" />
		<edge from-layer="2456" from-port="4" to-layer="2481" to-port="0" />
		<edge from-layer="2457" from-port="0" to-layer="2458" to-port="1" />
		<edge from-layer="2458" from-port="2" to-layer="2460" to-port="0" />
		<edge from-layer="2459" from-port="0" to-layer="2460" to-port="1" />
		<edge from-layer="2460" from-port="2" to-layer="2461" to-port="0" />
		<edge from-layer="2461" from-port="1" to-layer="2462" to-port="0" />
		<edge from-layer="2462" from-port="2" to-layer="2464" to-port="0" />
		<edge from-layer="2463" from-port="0" to-layer="2464" to-port="1" />
		<edge from-layer="2464" from-port="2" to-layer="2467" to-port="0" />
		<edge from-layer="2465" from-port="0" to-layer="2467" to-port="1" />
		<edge from-layer="2466" from-port="0" to-layer="2467" to-port="2" />
		<edge from-layer="2467" from-port="3" to-layer="2468" to-port="1" />
		<edge from-layer="2467" from-port="4" to-layer="2471" to-port="1" />
		<edge from-layer="2468" from-port="2" to-layer="2472" to-port="0" />
		<edge from-layer="2468" from-port="2" to-layer="2476" to-port="1" />
		<edge from-layer="2469" from-port="0" to-layer="2470" to-port="0" />
		<edge from-layer="2470" from-port="1" to-layer="2471" to-port="0" />
		<edge from-layer="2471" from-port="2" to-layer="2476" to-port="0" />
		<edge from-layer="2471" from-port="2" to-layer="2472" to-port="1" />
		<edge from-layer="2472" from-port="2" to-layer="2475" to-port="0" />
		<edge from-layer="2473" from-port="0" to-layer="2474" to-port="0" />
		<edge from-layer="2474" from-port="1" to-layer="2475" to-port="1" />
		<edge from-layer="2475" from-port="2" to-layer="2477" to-port="0" />
		<edge from-layer="2476" from-port="2" to-layer="2477" to-port="1" />
		<edge from-layer="2477" from-port="2" to-layer="2480" to-port="0" />
		<edge from-layer="2478" from-port="0" to-layer="2479" to-port="0" />
		<edge from-layer="2479" from-port="1" to-layer="2480" to-port="1" />
		<edge from-layer="2480" from-port="2" to-layer="2482" to-port="0" />
		<edge from-layer="2481" from-port="1" to-layer="2482" to-port="1" />
		<edge from-layer="2482" from-port="2" to-layer="2483" to-port="0" />
	</edges>
	<rt_info>
		<MO_version value="2023.1.0-12050-e33de350633" />
		<Runtime_version value="2023.3.0-13775-ceeafaf64f3-releases/2023/3" />
		<conversion_parameters>
			<framework value="onnx" />
			<input_model value="DIR\yolov9.onnx" />
			<is_python_api_used value="False" />
			<output_dir value="DIR" />
		</conversion_parameters>
		<framework>
			<names value="{0: 'person', 1: 'bicycle', 2: 'car', 3: 'motorcycle', 4: 'airplane', 5: 'bus', 6: 'train', 7: 'truck', 8: 'boat', 9: 'traffic light', 10: 'fire hydrant', 11: 'stop sign', 12: 'parking meter', 13: 'bench', 14: 'bird', 15: 'cat', 16: 'dog', 17: 'horse', 18: 'sheep', 19: 'cow', 20: 'elephant', 21: 'bear', 22: 'zebra', 23: 'giraffe', 24: 'backpack', 25: 'umbrella', 26: 'handbag', 27: 'tie', 28: 'suitcase', 29: 'frisbee', 30: 'skis', 31: 'snowboard', 32: 'sports ball', 33: 'kite', 34: 'baseball bat', 35: 'baseball glove', 36: 'skateboard', 37: 'surfboard', 38: 'tennis racket', 39: 'bottle', 40: 'wine glass', 41: 'cup', 42: 'fork', 43: 'knife', 44: 'spoon', 45: 'bowl', 46: 'banana', 47: 'apple', 48: 'sandwich', 49: 'orange', 50: 'broccoli', 51: 'carrot', 52: 'hot dog', 53: 'pizza', 54: 'donut', 55: 'cake', 56: 'chair', 57: 'couch', 58: 'potted plant', 59: 'bed', 60: 'dining table', 61: 'toilet', 62: 'tv', 63: 'laptop', 64: 'mouse', 65: 'remote', 66: 'keyboard', 67: 'cell phone', 68: 'microwave', 69: 'oven', 70: 'toaster', 71: 'sink', 72: 'refrigerator', 73: 'book', 74: 'clock', 75: 'vase', 76: 'scissors', 77: 'teddy bear', 78: 'hair drier', 79: 'toothbrush'}" />
			<stride value="32" />
		</framework>
		<legacy_frontend value="False" />
	</rt_info>
</net>
